cnn_model.pth (torch, 98537 bytes, 8 tensors)

net.0.weight f4 [16, 3, 3, 3]
0	0xbdb1f92c	-0.08690104
1	0xbdcf763f	-0.101299755
2	0xbe0599cf	-0.13046955
3	0xbdd2964d	-0.10282574
4	0xbcd23327	-0.025659157
5	0xbe056855	-0.13028081
6	0xbe0437d2	-0.12911919
7	0x3e30265b	0.17202131
8	0x3e284406	0.16432199
9	0xbcb14d77	-0.021643383
10	0x3e504a89	0.20340933
11	0x3e026227	0.12732755
12	0x3d29e941	0.041482214
13	0x3e529b6a	0.20567098
14	0x3ddae0da	0.10687418
15	0x3db2cac9	0.087300844
16	0xbdd97eac	-0.10619864
17	0xbd48f9f6	-0.049066506
18	0xbe26b985	-0.16281708
19	0x3d97b30a	0.07407196
20	0xbdc04d0c	-0.093896955
21	0xbd3449cc	-0.04401569
22	0x3d43fcac	0.04784839
23	0x3e079f98	0.13244474
24	0xbe01a494	-0.12660438
25	0x3dd0d1c6	0.10196261
26	0xbb90edb6	-0.0044228686
27	0x3ccf3bfa	0.025297154
28	0xbd83009d	-0.06396601
29	0xbdd11d45	-0.10210661
30	0x3e1c237b	0.1524791
31	0x3e270467	0.16310273
32	0x3d87ca47	0.06630378
33	0x3e363946	0.17795286
34	0xbe1c9638	-0.15291679
35	0x3e5bde31	0.21471478
36	0x3c56b4e9	0.013104656
37	0xbc0b57c1	-0.008504809
38	0xbd931eda	-0.07183619
39	0xbe45e50e	-0.19325659
40	0xbe1fde35	-0.15612109
41	0xbe24976f	-0.16073392
42	0xbd199629	-0.03749672
43	0xbda90f96	-0.08254926
44	0x3df1b254	0.118015915
45	0xbe2d4822	-0.16922048
46	0x3e13a68a	0.14418998
47	0xbe27d5bd	-0.16390128
48	0x3db4d254	0.088291794
49	0x3da9cb02	0.08290674
50	0x3e5d1a30	0.21592021
51	0x3e2dd5c2	0.16976073
52	0x3e54afc7	0.20770179
53	0x3e5046f2	0.20339563
54	0xbd876c5e	-0.06612466
55	0xbde4d188	-0.111727774
56	0xba8150e5	-0.0009866027
57	0xbc7a8a19	-0.015291714
58	0x3c952116	0.018204253
59	0xbc1610c0	-0.009159267
60	0xbe0c60c3	-0.13708787
61	0xbdad1642	-0.08451511
62	0x3daed836	0.08537333
63	0xbccab57a	-0.024744738
64	0x3e0bb32f	0.13642572
65	0x3e0a5075	0.13507254
66	0xbe0fe5b2	-0.14052466
67	0x3e264416	0.1623691
68	0xbd01c3fc	-0.031681046
69	0xbe48ef0c	-0.19622439
70	0x3e49079c	0.19631809
71	0xbdea986f	-0.11454856
72	0x3e1ba438	0.15199363
73	0x3dabda12	0.08391203
74	0xbd9e3ede	-0.07726835
75	0xbdcedecb	-0.10101088
76	0xbe35dd6b	-0.17760246
77	0x3dfa99f9	0.12236399
78	0xbd12e874	-0.035866216
79	0xbe21ce7e	-0.15801427
80	0x3e347505	0.17622764
81	0xbdf95a8d	-0.12175474
82	0x3cc5f238	0.02416335
83	0xbd53c02f	-0.051696952
84	0x3d8980ef	0.06714045
85	0xbd823b0e	-0.0635892
86	0xbdaa9b66	-0.08330421
87	0xbe254e03	-0.1614304
88	0x3d6095eb	0.054830473
89	0xbdcf77b9	-0.10130257
90	0x3d79c367	0.060977366
91	0x3b0f0404	0.0021822462
92	0x3df09400	0.11746979
93	0x3e41d97d	0.18930621
94	0x3d0282ac	0.0318629
95	0x3e150656	0.14553198
96	0x3e2d129b	0.16901629
97	0xbdc81ba8	-0.097709
98	0x3e5a4114	0.21313888
99	0xbe0732fd	-0.13203044
100	0x3d40c93e	0.04706692
101	0xbe21688e	-0.1576254
102	0x3d609b4a	0.054835595
103	0x3cf257bc	0.02958285
104	0xbdcabee5	-0.098996915
105	0x3e42f1f2	0.19037607
106	0xbb37885e	-0.0028004865
107	0xbd35266a	-0.044226088
108	0xbe47433a	-0.19459239
109	0x3d93ebcb	0.07222708
110	0xbe37b898	-0.1794151
111	0x3d41fab2	0.047358222
112	0xbe1a1ba6	-0.1504961
113	0xbe16c868	-0.14724886
114	0xbd50ddeb	-0.050992887
115	0x3da45bec	0.08025345
116	0x3dbe1470	0.09281242
117	0x3d846c6b	0.064659916
118	0x3e4d9872	0.20077685
119	0x3e1839a6	0.14865741
120	0xbd9c8112	-0.07641806
121	0xbe1f5081	-0.15558054
122	0xbdd82b0e	-0.10555087
123	0xbe358679	-0.17727078
124	0x3deea3d5	0.11652342
125	0x3ca59022	0.02021033
126	0x3d2067a6	0.039161347
127	0x3dd38021	0.10327173
128	0xbd74c98f	-0.059762534
129	0x3d7ea6e1	0.062170867
130	0x3e316836	0.1732491
131	0xbd9f150c	-0.07767686
132	0x3d0b2fa9	0.033981
133	0x3cd20b07	0.025640024
134	0x3e3b4782	0.18288997
135	0xbe3abb8d	-0.18235607
136	0xbdbdc15a	-0.092653945
137	0x3c8d2ab8	0.017232284
138	0xbba38240	-0.0049898922
139	0x3de885e2	0.11353661
140	0xbd8f7749	-0.07005174
141	0xbd7fe004	-0.062469497
142	0x3e33c65f	0.17556141
143	0xbdb4c69b	-0.088269435
144	0x3d83e296	0.06439702
145	0xbe102a7f	-0.14078711
146	0xbe303274	-0.17206746
147	0x3cfbfe70	0.030760974
148	0xbc1a1230	-0.00940375
149	0x3c3812e0	0.011234969
150	0xbe0d5c22	-0.13804677
151	0xbe437b07	-0.190899
152	0xbe1cfba4	-0.15330368
153	0x3e03301d	0.12811323
154	0xbdbaf6a3	-0.091290735
155	0xbdb8c5af	-0.0902208
156	0xbe416bad	-0.18888731
157	0x3dcb2a6e	0.09920202
158	0xbe228fe8	-0.15875208
159	0xbe2ffd40	-0.17186451
160	0x3e0be475	0.13661368
161	0xbe290278	-0.16504848
162	0x3e3b3f68	0.18285906
163	0x3e5f2b30	0.21793818
164	0xbdb7cec9	-0.08974988
165	0x3c5571ff	0.013027667
166	0x3e4a7c6d	0.19774027
167	0x3e08942f	0.13337778
168	0xbddb1348	-0.10697037
169	0xbd731c2f	-0.05935305
170	0x3dc2f0b9	0.095185705
171	0x3e07562e	0.13216469
172	0x3e22e305	0.15906914
173	0x3de11430	0.109901786
174	0x3df69d55	0.120417275
175	0xbddaa917	-0.106767826
176	0x3de9115e	0.11380266
177	0x3e25be69	0.16185917
178	0xbdb657a4	-0.08903435
179	0x3d05725c	0.032579765
180	0x3e43ab4c	0.19108313
181	0x3e3d5bb6	0.18492016
182	0x3e498368	0.19679034
183	0xbc320224	-0.010864768
184	0x3e3336d6	0.17501387
185	0x3e0df487	0.13862811
186	0x3e5905d0	0.21193624
187	0x3e13c280	0.14429665
188	0xbdde3a93	-0.10851016
189	0x3d94beb0	0.07262933
190	0x3d2a668b	0.0416017
191	0x3e2255b3	0.15853004
192	0xbe37142e	-0.17878792
193	0x3e25e24f	0.16199611
194	0x3e36b5b4	0.17842752
195	0xbe01f022	-0.1268926
196	0x3d22f5b5	0.039785106
197	0xbd500c81	-0.050793175
198	0x3e20034c	0.15626258
199	0x3c8966a4	0.016772576
200	0xbdc8665c	-0.097851485
201	0xbc611328	-0.013737477
202	0xbdb2cfdc	-0.08731052
203	0xbc34847b	-0.011017914
204	0x3beb74be	0.0071855476
205	0x3e18b8e8	0.14914286
206	0x3c71650b	0.014733563
207	0x3e21a2b5	0.15784724
208	0x3df27ef9	0.11840624
209	0xbd9c11bf	-0.07620572
210	0xbdedc13d	-0.11609123
211	0xbd3bd2bd	-0.045855273
212	0x3da155ce	0.07877694
213	0x3e0606db	0.13088553
214	0xbd7432d5	-0.05961879
215	0x3ddb72b9	0.10715241
216	0x3d9b7cd5	0.07592169
217	0xbe044da8	-0.12920249
218	0xbe16ecf3	-0.14738826
219	0x3e2d1458	0.16902292
220	0xbda29290	-0.07938111
221	0xbe2bc021	-0.1677251
222	0x3da902af	0.08252465
223	0xbcc77d35	-0.024351696
224	0xbdfa9dc6	-0.12237124
225	0x3d18ef4d	0.03733759
226	0x3ac3558f	0.0014902818
227	0x3e34485e	0.17605731
228	0x3da0814a	0.0783716
229	0xbd90b89d	-0.07066462
230	0xbda78218	-0.0817911
231	0x3e0d3965	0.13791426
232	0x3db15995	0.086596645
233	0xbe2651db	-0.16242163
234	0x3da7f230	0.082004905
235	0xbe1db516	-0.1540111
236	0xbe34c2de	-0.17652461
237	0xbdb9c9a1	-0.09071661
238	0x3d16ef78	0.03684947
239	0x3e07d0fa	0.13263312
240	0x3dc118b0	0.09428537
241	0xbd52330b	-0.05131821
242	0x3dfaf005	0.12252811
243	0xbdb02136	-0.086000845
244	0x3da0ae2e	0.07845722
245	0x3d6a8acc	0.057261273
246	0xbda42dba	-0.08016534
247	0xbd1a1fff	-0.03762817
248	0x3c7cd042	0.015430512
249	0xbda8725c	-0.08224937
250	0xbe05134e	-0.12995645
251	0x3da8a286	0.08234124
252	0x3dcf5354	0.101233155
253	0x3e2a7fc1	0.16650297
254	0x3e1e6175	0.15466864
255	0xbe432925	-0.19058664

net.0.bias f4 [16]
0	0x3dd717fc	0.105026215
1	0xbc313796	-0.010816475
2	0x3d844dd4	0.06460157
3	0x3e57bd9a	0.21068421
4	0x3de95cdb	0.11394664
5	0xbd742b38	-0.05961153
6	0xbe4867c9	-0.19570841
7	0xbe2628a5	-0.16226442
8	0x3e2e9503	0.17049031
9	0xbd0b0c5c	-0.033947334
10	0xbe1cd25b	-0.15314619
11	0xbd7fdf15	-0.062468607
12	0xbda32642	-0.079662815
13	0x3e282886	0.16421708
14	0xbe174393	-0.14771871
15	0xbe04e21d	-0.1297688

net.2.weight f4 [32, 16, 3, 3]
0	0x3d719dad	0.058988262
1	0xbd75cab5	-0.06000777
2	0xbdb5ca09	-0.08876426
3	0xbda26dfa	-0.079311326
4	0xbd44ec28	-0.04807678
5	0xbd4e3c3b	-0.05035041
6	0x3d4710c1	0.048599962
7	0x3d1c1e55	0.038114864
8	0x3db13943	0.086535
9	0x3ddcada5	0.107753076
10	0x3df022f4	0.11725417
11	0x3ccf4770	0.025302619
12	0x3de9ee54	0.114224106
13	0xbcbb137d	-0.022836441
14	0xbb431992	-0.002976988
15	0xbd605307	-0.05476668
16	0x3c92c55b	0.017916372
17	0x3d9fa19f	0.07794499
18	0x3d4fb493	0.05070932
19	0xbcf84f6a	-0.030311305
20	0xbc9a47a8	-0.018832996
21	0xbcdc8cb4	-0.026922561
22	0x3a2f0947	0.00066771026
23	0xbdd162e5	-0.10223941
24	0x3d9fd243	0.07803776
25	0xbdaa44fc	-0.08313939
26	0xbd326df6	-0.0435619
27	0x3d20d3b9	0.039264414
28	0x3c509be4	0.01273248
29	0x3c103b23	0.008803162
30	0xbdc42363	-0.09577062
31	0x3d3c294b	0.045937818
32	0x3d15e6a4	0.03659691
33	0x3d7878fa	0.060662247
34	0xbc840c1d	-0.016119057
35	0x3c5e2a4f	0.013559892
36	0x3c9e04f3	0.01928947
37	0x3d9ba1e2	0.07599236
38	0xbd8c6809	-0.06855781
39	0xbd3b11d1	-0.045671288
40	0x3caa8420	0.020814955
41	0xbce600bb	-0.02807652
42	0xbb9e91da	-0.004839164
43	0xbce92b3c	-0.028462999
44	0xbd6e22a8	-0.05813852
45	0x3cca9a8c	0.024731897
46	0x3cc00d5c	0.02344387
47	0x3d938795	0.072035946
48	0x3d92be41	0.07165194
49	0xbd7bcbf0	-0.061473787
50	0xb9041800	-0.00012597442
51	0x3c666098	0.014061116
52	0x3c466160	0.012108177
53	0x3d70c6da	0.05878339
54	0x3dddf0d0	0.10836947
55	0x3dd24c9d	0.10268519
56	0xbcb09403	-0.021554952
57	0x3da9b542	0.08286525
58	0x3c0b4ccd	0.008502197
59	0x3d8c9199	0.06863708
60	0xbd2ae0eb	-0.041718405
61	0xbd42836e	-0.047488622
62	0x3da23520	0.07920289
63	0x3d98848e	0.07447158
64	0x3d21d702	0.039511688
65	0xbce71f6a	-0.028213222
66	0x3d138d0f	0.036023196
67	0xbc32dc95	-0.010916849
68	0x3d98f951	0.07469428
69	0xbda31540	-0.079630375
70	0x3d47c27f	0.04876947
71	0xbd2439cd	-0.040094186
72	0xbd503c31	-0.050838653
73	0xbbe1ab26	-0.0068868576
74	0xbdb087e2	-0.086196676
75	0xbd0d6d80	-0.034528255
76	0x3d14f5a3	0.03636707
77	0x3d39bedc	0.045348033
78	0xbc8c34f8	-0.017115101
79	0x3c8e816c	0.017395698
80	0xbd9ef10c	-0.0776082
81	0x3dada10b	0.08477982
82	0x3dbe23f0	0.09284198
83	0xbcebc316	-0.028779548
84	0x3d6e5db4	0.05819483
85	0xbc967516	-0.018366378
86	0x3d7b37ed	0.06133263
87	0xbd677e34	-0.05651684
88	0xbd0c81ec	-0.03430359
89	0xbbdd576a	-0.0067548053
90	0xbb6a5b7c	-0.0035760095
91	0xbc91d429	-0.017801361
92	0x3c53635b	0.012902106
93	0xbd0f120a	-0.034929313
94	0xbc704aab	-0.01466624
95	0x3d943f4f	0.07238638
96	0xbda36162	-0.07977559
97	0x3d4c6af8	0.0499067
98	0x3d8741d9	0.06604356
99	0xbd397ffc	-0.04528807
100	0xbdfe2e66	-0.124111935
101	0xbdbb783a	-0.09153791
102	0xbc9b5496	-0.018961232
103	0x3cf3835d	0.029725725
104	0x3c570f6f	0.013126238
105	0xbb93d06e	-0.0045109307
106	0xbd3a7608	-0.04552272
107	0x3dc5df64	0.09661749
108	0x3dd5422d	0.10413013
109	0xbbef97b0	-0.0073117837
110	0x3d912a5f	0.0708816
111	0xbc9a9bcb	-0.018873116
112	0xba1d7b59	-0.0006007455
113	0x3d902926	0.070390984
114	0xbbc0a44c	-0.0058789607
115	0x3d026f02	0.031844147
116	0x3c82b010	0.015953094
117	0x3db3f919	0.08787746
118	0xbc3dca6e	-0.0115839075
119	0xbc0b2eb8	-0.008495025
120	0xbd378d9c	-0.044812784
121	0xbdb58ef8	-0.0886516
122	0x3d61f02c	0.055160686
123	0x3bfd9fe0	0.007740006
124	0xbdc1bf2f	-0.094602935
125	0xba5f9ccc	-0.00085301395
126	0xbd753db0	-0.059873283
127	0xbd5810f7	-0.052750554
128	0xbc8d2300	-0.017228603
129	0x3dcbb8fc	0.09947392
130	0x3ce5616a	0.028000552
131	0x3d822c79	0.06356139
132	0x3c1ed18e	0.009693516
133	0x3d0dfcb5	0.03466483
134	0x3dd178d2	0.10228123
135	0x3c75d686	0.01500476
136	0x3d7d48b2	0.061836906
137	0x3d2f7976	0.042840444
138	0xbd0c548d	-0.03426032
139	0x3cc12652	0.023577843
140	0x3da763d1	0.08173335
141	0x3cf900bc	0.030395858
142	0x3cefc126	0.029266905
143	0x3bb67489	0.0055680913
144	0x3d82ced0	0.063871026
145	0x3da26b07	0.0793057
146	0xbd001ee4	-0.03127946
147	0x3cfb2775	0.030658463
148	0xbda6e21f	-0.08148598
149	0xbd8449bf	-0.064593785
150	0x3d3b4ebb	0.04572938
151	0x3d002b14	0.031291083
152	0xbd2fa162	-0.042878516
153	0xbc33d961	-0.01097712
154	0x3d742b26	0.059611462
155	0x3ce7f477	0.028314812
156	0x3d3060f1	0.0430612
157	0x3d833d50	0.06408179
158	0xbd415767	-0.047202494
159	0x3d546930	0.051858127
160	0x3d2e257b	0.042516213
161	0x3d970505	0.07374004
162	0xbd7bbf74	-0.06146188
163	0xbd7cde41	-0.061735395
164	0xbd0826e1	-0.033240203
165	0xbda26e8a	-0.0793124
166	0xbd9c80da	-0.07641764
167	0x3c9946b8	0.01871048
168	0x3d098cfc	0.03358172
169	0x3d5b1057	0.05348238
170	0xbda60cee	-0.08107935
171	0x3cd7541c	0.026285224
172	0xbb98ceca	-0.004663323
173	0x3cb78201	0.022400858
174	0xbda40c16	-0.08010118
175	0x3d27ea64	0.040995017
176	0x3d25b574	0.04045625
177	0xba90b48d	-0.0011040136
178	0xbd8d2668	-0.06892091
179	0xbd061eeb	-0.03274433
180	0xbd7fccfb	-0.062451344
181	0xbcfc7196	-0.03081588
182	0xbcb562eb	-0.022141894
183	0x3d714ea1	0.058912877
184	0xbc1bdebf	-0.009513556
185	0xbd46d459	-0.048542354
186	0x3d17def9	0.037077878
187	0xbc923c27	-0.017850948
188	0xbd5888fb	-0.05286501
189	0xbd4df453	-0.050281834
190	0x3bee0490	0.0072637275
191	0xbcb31640	-0.021861196
192	0xbc228f88	-0.009921916
193	0xbd808167	-0.062746815
194	0x3daa1dd5	0.08306471
195	0xbd576b56	-0.052592598
196	0x3cfaba34	0.030606367
197	0xbbf99550	-0.0076166764
198	0x3d1ef6d2	0.038809605
199	0x3cc650b4	0.024208404
200	0x3ca83c81	0.020536663
201	0xbcbe6c69	-0.023245053
202	0xbba9a986	-0.0051776795
203	0x3ccdab3a	0.025106061
204	0xbd18701e	-0.0372163
205	0x3d98daf1	0.07463635
206	0x3d923d2e	0.07140575
207	0xbafebc9c	-0.0019434872
208	0x3c1c2dd2	0.009532409
209	0xbca8e8dd	-0.02061885
210	0x3a95ded5	0.0011434207
211	0x3dae1386	0.084998176
212	0x3dda6fca	0.10665853
213	0xbced4e59	-0.028968023
214	0x3d62bbb5	0.055354793
215	0x3dd5a604	0.104320556
216	0x3ca9683c	0.020679586
217	0xbcb319eb	-0.021862945
218	0xbd357261	-0.044298533
219	0xbceff569	-0.029291825
220	0xbd7655b5	-0.06014033
221	0x3ca72996	0.020405572
222	0x3c0fd319	0.008778357
223	0xbd99c635	-0.07508508
224	0xbd0ee38f	-0.034884986
225	0xbbf89ada	-0.007586819
226	0xbd370a35	-0.04468747
227	0xbd523180	-0.051316738
228	0x3cb54fd2	0.022132788
229	0xbce74a06	-0.02823354
230	0x3dc984c6	0.09839778
231	0xbd99bd53	-0.07506814
232	0xbd668d22	-0.05628694
233	0x3c436204	0.011925224
234	0x3dc77e11	0.09740842
235	0x3dc26dbf	0.09493589
236	0x3dad43a6	0.084601685
237	0x3da1150f	0.07865345
238	0xbcac2e22	-0.021018092
239	0xbd4d2d81	-0.050092224
240	0x3d17f295	0.03709658
241	0x3d7b3891	0.061333243
242	0xbd551826	-0.052024983
243	0x3cf91bf0	0.03040883
244	0xbcbcdf91	-0.023055824
245	0xbdd03af4	-0.101674944
246	0x3da78bd2	0.081809655
247	0xbcf1200c	-0.029434226
248	0x3bb9d8c1	0.005671591
249	0xbc1c3e49	-0.009536334
250	0x3d7e374b	0.06206445
251	0xbd947396	-0.07248609
252	0xbd89a8fe	-0.06721686
253	0x3d793058	0.06083712
254	0x3d90a355	0.07062403
255	0xbcbb8aa9	-0.022893267

net.2.bias f4 [32]
0	0x3cffc384	0.031221159
1	0xbbb84c2e	-0.0056243157
2	0x3daa661d	0.08320258
3	0x3d87dc73	0.06633844
4	0xbd04a567	-0.032384302
5	0xbbf5a05e	-0.007495924
6	0xbd89c938	-0.067278326
7	0xbd02633f	-0.03183293
8	0xbde374f3	-0.11106291
9	0xbce870e2	-0.02837414
10	0x3daa31a8	0.083102524
11	0x3d1499c3	0.03627945
12	0xbac08959	-0.001468937
13	0x3d10076f	0.03516334
14	0xbc98183c	-0.018566243
15	0xbdb7cebe	-0.0897498
16	0xbc3ff0a7	-0.011715091
17	0xbcef3ba1	-0.029203238
18	0xbda3299e	-0.07966922
19	0x3b5cbef9	0.0033683165
20	0xbd8ae9cd	-0.06782875
21	0xbd4a6ed2	-0.049422093
22	0x3d86ff17	0.06591623
23	0x3d5dc34d	0.05414133
24	0xbdaf0f2f	-0.08547818
25	0x3a79d282	0.00095299643
26	0x3d5189fe	0.05115699
27	0x3daf9987	0.08574205
28	0x3d179589	0.037007842
29	0x3db969e3	0.090533994
30	0xbcc816fe	-0.024425026
31	0x3dc1e0f2	0.09466733

net.5.weight f4 [64, 288]
0	0x3a2aed82	0.0006520377
1	0xbd0042b0	-0.0313136
2	0xbd001f88	-0.03128007
3	0x3d4d60a2	0.050140984
4	0xbd62183e	-0.0551989
5	0x3d0ead5c	0.034833297
6	0xbc04ae92	-0.008098261
7	0x3b93f1ac	0.0045148935
8	0xbb21ac80	-0.0024669468
9	0xbcf41728	-0.029796198
10	0x3c34accf	0.011027529
11	0x3d278297	0.040896025
12	0x3d05512d	0.03254812
13	0xbd74f33c	-0.05980228
14	0x3d5021f5	0.050813634
15	0x3d4a4541	0.049382452
16	0x3d2d1d77	0.042264428
17	0x3c2728a6	0.010202562
18	0x3c88add8	0.016684458
19	0xbd78564c	-0.060629174
20	0xbc2a6ef2	-0.010402428
21	0x3c020e27	0.0079379445
22	0xbd2f543c	-0.04280494
23	0x3d0f53f9	0.034992192
24	0x3d4be066	0.04977455
25	0xbb8b78e0	-0.004256353
26	0x3bdaa518	0.0066725127
27	0xbbff1f37	-0.0077857035
28	0x3afeae41	0.0019430594
29	0xbb3139b4	-0.002704245
30	0x3d3cea29	0.04612175
31	0x3c594d12	0.013263004
32	0x3d454854	0.04816468
33	0x3bd911d2	0.006624439
34	0xbd7e3333	-0.062060546
35	0xbcffa468	-0.031206325
36	0x3d5b78b1	0.053581897
37	0x3b6e28f0	0.0036340319
38	0xbca75c5f	-0.020429788
39	0xbb99e828	-0.0046968646
40	0xbb897a48	-0.0041954853
41	0xbd397d11	-0.04528529
42	0x3cb1dc0b	0.02171137
43	0x3c63b38c	0.013897788
44	0xbcae15ca	-0.021250624
45	0xbc7fc106	-0.015609985
46	0x3c9ce512	0.019152198
47	0xbc9f33a6	-0.019433808
48	0xbca85262	-0.020547096
49	0xbd71f19d	-0.05906831
50	0x3c1f0424	0.009705577
51	0x3cbb6b12	0.022878204
52	0x3cfb7b7d	0.030698532
53	0xbd323fab	-0.04351775
54	0x3cfda3de	0.030961927
55	0xbc246799	-0.010034465
56	0x3caaac88	0.020834222
57	0xbaecb7c2	-0.0018060135
58	0xbd699ba3	-0.057033192
59	0xbd0d5cb8	-0.03451225
60	0xbc749344	-0.014927689
61	0x3d2f3aa4	0.042780533
62	0x3d03bf1e	0.032164685
63	0x3d15b4bb	0.03654931
64	0x3b212f00	0.0024594665
65	0xbcfdda8c	-0.030988
66	0x3d455dad	0.04818504
67	0x3c49c99c	0.012316134
68	0x3d598a05	0.05311014
69	0x3d253501	0.04033375
70	0x3d325a98	0.04354343
71	0xbd833070	-0.06405723
72	0xbd1b1371	-0.037860338
73	0x3aa71c3e	0.0012749506
74	0x3d15b992	0.036553927
75	0xbd6e8b48	-0.058238298
76	0x3ca686fe	0.020328041
77	0xbd666d24	-0.05625643
78	0xbcfe7a29	-0.03106411
79	0x3d5e0d9d	0.0542122
80	0x3c94a3de	0.018144544
81	0x3c94735b	0.018121412
82	0xbd4aded4	-0.04952891
83	0xbd59509d	-0.053055394
84	0x3d337920	0.043816686
85	0xbd0d7f8f	-0.034545477
86	0x3d1b00c9	0.037842546
87	0xbce2ad7c	-0.027670614
88	0xbcc7e660	-0.024401844
89	0xbcb5ba66	-0.022183608
90	0xbd5b9c7a	-0.053616025
91	0xbbeb30a0	-0.0071774274
92	0x3bebd226	0.0071966825
93	0xbcf5ac9c	-0.029989533
94	0x3d0ccf01	0.0343771
95	0xbc3f16c4	-0.011663143
96	0x3b72fdd2	0.0037077558
97	0xbce5e3a8	-0.028062657
98	0x3cd667c5	0.026172528
99	0xbd0b877d	-0.03406476
100	0xbd5fe792	-0.054664202
101	0x3d2ca731	0.042151634
102	0x3bff80ce	0.007797337
103	0xbd7a374a	-0.061087884
104	0xbcd478dd	-0.025936538
105	0xbc7bffb1	-0.015380786
106	0x3d3e21a9	0.04641882
107	0xbc8477f9	-0.016170489
108	0xbd40ff21	-0.04711831
109	0x3d575aac	0.052576706
110	0x3cbe3c29	0.023222046
111	0x3a4c3413	0.0007789742
112	0xbd84d574	-0.064860255
113	0xbd5ee70f	-0.054419573
114	0xbcad3364	-0.021142669
115	0xbd248bb3	-0.04017229
116	0x3d04ac67	0.03239098
117	0x3d406762	0.046973594
118	0x3d4f2611	0.050573412
119	0xbd43d63d	-0.047811735
120	0xbbbf3794	-0.005835483
121	0x3c27d17b	0.010242815
122	0xbc2030a6	-0.009777224
123	0x3c84006c	0.016113482
124	0x3cd9faef	0.026608912
125	0xbd73e809	-0.059547458
126	0x3ba62e23	0.005071418
127	0x3c82e621	0.015978875
128	0x3d19378b	0.037406486
129	0xbd809a39	-0.06279416
130	0x3c819752	0.015819225
131	0x3d1b0351	0.03784496
132	0x3d06280c	0.032753035
133	0xbbd616a0	-0.006533459
134	0xbd3ca617	-0.046056833
135	0xbd6cc22c	-0.057802364
136	0x3d2170b7	0.039414134
137	0x3ccb81a6	0.024842095
138	0x3d4f87af	0.050666507
139	0xbc2af6ac	-0.010434788
140	0x3c04fa1c	0.008116271
141	0xbd34b127	-0.04411426
142	0x3d20f9db	0.03930078
143	0xbd2c8be8	-0.042125612
144	0x3d1b8fe9	0.03797904
145	0xbd82df67	-0.06390267
146	0xbd2e94b0	-0.04262227
147	0x3c9f5ffc	0.019454949
148	0xbc6b7173	-0.01437031
149	0x3c4f5fc0	0.012657106
150	0xbd17d6dc	-0.03707014
151	0xbd72fa30	-0.05932063
152	0xbd49d8bb	-0.049278956
153	0x3c174aa4	0.009234104
154	0x3d5695a0	0.052388787
155	0x3d00c437	0.031437125
156	0x3d4571e3	0.048204314
157	0xbc4b9300	-0.012425184
158	0x3ccd01f2	0.025025342
159	0xb9e37100	-0.00043381006
160	0x3d55f849	0.052238736
161	0xbd2cabcb	-0.042156022
162	0x3d3e0caf	0.046398815
163	0xbd47a5ee	-0.048742227
164	0xbd022dbc	-0.031781897
165	0x3d4fd7bd	0.050742853
166	0xbd26fb38	-0.040766925
167	0xbc57ba7c	-0.01316702
168	0x3b046c18	0.002020603
169	0xbd0c46c8	-0.03424719
170	0xbd6a0610	-0.057134688
171	0x3cdec1ee	0.027192082
172	0xbd48544a	-0.04890851
173	0x3cb1b73a	0.021693815
174	0xbc7fada8	-0.015605368
175	0x3d390e5b	0.045179706
176	0xbd24b295	-0.04020937
177	0xbd6dbc3b	-0.05804084
178	0xbca5cd22	-0.020239417
179	0x3ce5c8ce	0.028049853
180	0xbcaa92ce	-0.020821955
181	0xbcb6441c	-0.022249274
182	0xbd00f901	-0.03148747
183	0xbc892608	-0.016741768
184	0xbd2528da	-0.040322162
185	0xbc9bc427	-0.019014431
186	0x3ca8b774	0.02059529
187	0xbd00f42d	-0.031482864
188	0xbba21701	-0.00494659
189	0xbd533a08	-0.051569015
190	0xbd36a51d	-0.044591058
191	0xba955460	-0.0011392944
192	0x3ca7537a	0.020425547
193	0x3c3d5f3a	0.011558348
194	0x3c3eb419	0.011639618
195	0xbd6faf77	-0.058516946
196	0x3d13d781	0.036094192
197	0x3ceddd6c	0.029036246
198	0x3d44e56c	0.048070356
199	0x3c8772c4	0.016534217
200	0x3d122082	0.035675533
201	0x3cce5052	0.025184784
202	0xbd05e183	-0.032685768
203	0xbd1d28a0	-0.03836882
204	0x3c9a931a	0.018868972
205	0x3d2600f4	0.040528253
206	0xbd220f22	-0.039565213
207	0x3d15ef34	0.036605075
208	0x3d03e813	0.032203745
209	0x3ca4e69c	0.020129494
210	0x3c848fdb	0.016181877
211	0x3d58dc97	0.052944746
212	0x3d52876d	0.051398683
213	0x3cf6e7ec	0.030139886
214	0xbc8c6a34	-0.017140485
215	0x3c97d7c2	0.018535499
216	0xbc134098	-0.008987568
217	0xbd42d126	-0.04756274
218	0xbccfb26c	-0.025353633
219	0x3d4fd47b	0.050739747
220	0xbcea57b5	-0.028606275
221	0xbc85d636	-0.016337495
222	0xbd14d912	-0.036339827
223	0xbcbe3b04	-0.0232215
224	0x3bdbf2c8	0.0067122914
225	0x3c5916d2	0.01325007
226	0x3d1f486a	0.03888742
227	0xbd6a67e0	-0.05722797
228	0xbca017da	-0.019542623
229	0x3c7f5ac4	0.015585605
230	0xbd00bec6	-0.031431936
231	0x3d1414cd	0.03615265
232	0xb9c93000	-0.0003837347
233	0xbcd1514d	-0.025551463
234	0x3c9283e2	0.017885152
235	0xbd5f66ae	-0.054541282
236	0x3be5ae02	0.0070092687
237	0x3885f26c	6.387089e-05
238	0xbd4ba886	-0.049721263
239	0xbcd91f31	-0.026504131
240	0xbcf5bbb6	-0.029996734
241	0x3d2bff26	0.041991375
242	0x3d080372	0.03320641
243	0x3c0bf0dc	0.008541312
244	0x3c2c8b44	0.01053125
245	0x3b73ebd0	0.0037219413
246	0xbcfadaf7	-0.030621989
247	0xbd24fad0	-0.040278256
248	0x3d34a75b	0.044104915
249	0x3c7bab64	0.015360687
250	0xbd58f0a7	-0.05296388
251	0x3d2030b7	0.039108958
252	0x3cc8e76e	0.024524417
253	0xbccccc22	-0.024999682
254	0xbc3b3655	-0.011426528
255	0x3c1d2c44	0.009593073

net.5.bias f4 [64]
0	0xbd2d5bfe	-0.04232406
1	0xbd3a0bda	-0.04542146
2	0xbcdad694	-0.026713647
3	0xbce4b6f0	-0.027919263
4	0x3d4c301d	0.049850572
5	0xbb18fc78	-0.0023343842
6	0x3d47ef16	0.048811994
7	0x3bd7c257	0.0065844464
8	0x3d236cb5	0.039898593
9	0xbccc7ef2	-0.024962876
10	0xbd2749d0	-0.040841877
11	0x3d57cfce	0.052688412
12	0xbd367e2e	-0.044553928
13	0xba7fd4e7	-0.0009759203
14	0xbcb9c105	-0.022675047
15	0x3d63f74a	0.055655755
16	0x3d1d9beb	0.038478773
17	0xbd52aebd	-0.051436175
18	0xbd5d9e78	-0.054106206
19	0x3d53da37	0.051721778
20	0xbcbeb7f4	-0.023281075
21	0xbd16a698	-0.03677997
22	0x3d0c52b4	0.03425856
23	0xbb756824	-0.0037446106
24	0x3afd6425	0.0019332214
25	0x3d2a8d56	0.041638695
26	0xbd15f6f6	-0.036612473
27	0xbd275af0	-0.04085821
28	0x3d1abffc	0.037780747
29	0xbcf16d6e	-0.029471125
30	0xbd2f8cfc	-0.042859063
31	0xbc1de158	-0.009636246
32	0x3da4b35d	0.08042023
33	0x3a450b80	0.0007516667
34	0x3cc371d4	0.023857988
35	0x3d2472b0	0.040148437
36	0x3aa2d267	0.0012422324
37	0xbd02692e	-0.03183859
38	0x3d849a5e	0.06474756
39	0x3b65ee02	0.003508449
40	0x3c2efbc4	0.010680143
41	0x3d4ac02a	0.04949967
42	0xbc2188c9	-0.009859272
43	0xbcc2b8e4	-0.023769803
44	0xbc8136a2	-0.015773121
45	0xbcd9bf70	-0.026580542
46	0x3d0428c1	0.03226543
47	0xb911f142	-0.00013918153
48	0xbd252dde	-0.040326945
49	0xbc9b82b6	-0.018983226
50	0x3c6bb7e1	0.014387102
51	0x3c1ac6d8	0.009446822
52	0x3d45a071	0.048248712
53	0xbd664dc3	-0.056226503
54	0x3d1a3b11	0.037653986
55	0x3d3e393b	0.046441298
56	0xbca8a766	-0.020587634
57	0xbd620f9e	-0.055190675
58	0x3d30a0ea	0.04312221
59	0xbccaac00	-0.02474022
60	0x3d0a3f4d	0.033751775
61	0x3cf6f9a8	0.030148342
62	0xbcac61d8	-0.02104275
63	0xbd036a21	-0.032083634

net.7.weight f4 [2, 64]
0	0xbdd608ea	-0.10450919
1	0xbd204e35	-0.039137084
2	0x3d87073f	0.06593179
3	0xbe0a3d01	-0.13499834
4	0xbc502836	-0.0127049
5	0xbe04d3f5	-0.1297148
6	0x3d325171	0.0435347
7	0xbd3f8cc3	-0.0467651
8	0x3db9f527	0.09079962
9	0xbd926888	-0.07148844
10	0xbd391178	-0.045182675
11	0xbdea152c	-0.114298195
12	0x3e1ce455	0.15321477
13	0xbc8e7e21	-0.017394127
14	0x3d2bf163	0.04197825
15	0x3e11f364	0.14253002
16	0xbdf10d09	-0.117700644
17	0x3dacbb14	0.0843412
18	0xbd83079b	-0.06397935
19	0x3d321d77	0.04348513
20	0xbd320d1c	-0.043469533
21	0x3d2829e1	0.041055564
22	0x3dcae459	0.09906835
23	0x3dec38b0	0.1153425
24	0x3bd2be9d	0.0064314143
25	0x3e14d102	0.14532855
26	0xbd7b13f8	-0.06129834
27	0xbd1641b1	-0.036683742
28	0xbd112439	-0.035434935
29	0xbd525df3	-0.05135913
30	0x3c1124a0	0.00885883
31	0xbcd91938	-0.026501283
32	0xbde229dd	-0.11043141
33	0x3d9f5e66	0.07781677
34	0x3d8a2455	0.06745211
35	0xbe1476fa	-0.14498511
36	0x3ca12315	0.019670049
37	0x3e17981f	0.14804123
38	0x3d40a065	0.047027964
39	0xbd7a99c5	-0.061181802
40	0xbd44e578	-0.0480704
41	0x3dc9d0c8	0.09854275
42	0xbc2b55a1	-0.010457427
43	0x3d6b7274	0.057482198
44	0x3d878696	0.06617467
45	0x3d16719d	0.036729444
46	0x3dc7e2e1	0.097600706
47	0x3d73f9be	0.059564345
48	0xbc8f5aa8	-0.017499283
49	0x3e120b15	0.1426204
50	0x3d4b4917	0.04963025
51	0x3d282fb0	0.041061103
52	0xbdb89e03	-0.09014513
53	0x3d6ac05c	0.057312354
54	0xbd401e8e	-0.04690414
55	0x3e20745e	0.1566939
56	0xbccb7cb8	-0.024839744
57	0xbd817a1a	-0.06322117
58	0xbe14a84a	-0.14517322
59	0x3d88f533	0.06687393
60	0x3db270d7	0.08712929
61	0xbcbcb455	-0.023035208
62	0xbd11d970	-0.035607755
63	0x3e0dffec	0.13867158
64	0xbd7bd9c2	-0.061486967
65	0x3d616cf9	0.055035565
66	0xbdd2afe0	-0.10287452
67	0x3d68e3f7	0.05685803
68	0x3c442e95	0.011973997
69	0xbcdafb00	-0.026731014
70	0x3db4cd9a	0.08828278
71	0x3d13b677	0.036062684
72	0xbdcc8d22	-0.099878564
73	0xbdb7f628	-0.089824975
74	0x3d92f1d6	0.07175033
75	0x3e1fee76	0.1561831
76	0x3d4abd22	0.049496777
77	0xbc996d17	-0.018728776
78	0x3d1abd8e	0.03777843
79	0xbdb08bf1	-0.08620442
80	0x3daa3699	0.08311195
81	0x3d29e940	0.04148221
82	0x3db34139	0.087526746
83	0xbd290732	-0.041266628
84	0xbcfde778	-0.030994162
85	0x3db3dcd8	0.08782357
86	0xbdcb0607	-0.09913259
87	0xbd936438	-0.071968496
88	0x3d4b4e25	0.04963507
89	0xbd9cd181	-0.07657147
90	0x3d35c263	0.044374835
91	0x3cb98540	0.022646546
92	0xbdea4152	-0.1143824
93	0x3d1e87eb	0.03870384
94	0xbd6e8894	-0.05823572
95	0xbd0ced88	-0.034406215
96	0x3c661d7a	0.014045114
97	0xbddf44d0	-0.10901797
98	0x3dcf894d	0.1013361
99	0x3de5b6f0	0.11216533
100	0xbd8135fc	-0.06309125
101	0xbdf8cf7e	-0.12148951
102	0x3e2658d3	0.16244821
103	0xbdfa3d67	-0.12218743
104	0xbe22f8f6	-0.15915284
105	0xbd669853	-0.05629761
106	0xbca0ffbc	-0.019653194
107	0xbbbacf20	-0.0057009608
108	0x3d9014a6	0.070351884
109	0xbde5f0f3	-0.11227598
110	0xbd83e6e5	-0.06440524
111	0xbdda7a93	-0.106679104
112	0x3cc378f8	0.023861393
113	0xbce0b3c4	-0.027429469
114	0x3d772895	0.060341436
115	0xbd460cae	-0.048351936
116	0xbd38bcb8	-0.04510185
117	0xbc760b80	-0.01501739
118	0xbdc03d92	-0.093867436
119	0xbd585a18	-0.052820295
120	0xbdca34e2	-0.09873368
121	0x3dc8fab6	0.09813444
122	0x3e184a86	0.14872178
123	0xbe1c611d	-0.15271421
124	0xbdbb930f	-0.091589086
125	0x3de2454d	0.11048374
126	0xbdc81172	-0.097689524
127	0xbda392e8	-0.079870045

net.7.bias f4 [2]
0	0xbdec4333	-0.11536255
1	0xbd5a9454	-0.053364113
