cnn_model_fixed.pth (torch, 229693 bytes, 8 tensors)

net.0.weight f4 [16, 3, 3, 3]
000000 dc e5 dd bc ab db 05 3e b9 a5 ef bd 63 c0 ae 3d
       -0.027087145 0.13072078 -0.11701531 0.085327886
000010 75 b0 1d be d8 f5 a4 3c df af db 3d 47 30 8c 3d
       -0.15399344 0.020136759 0.10726904 0.06845146
000020 7b ac 06 3e b0 1b 40 be f4 96 25 be 21 07 25 3c
       0.13151734 -0.18760562 -0.16170865 0.0100725
000030 32 9d 03 3e 59 af 01 be 82 fa 90 3d 08 f7 4d bd
       0.12852934 -0.12664546 0.070790306 -0.050284415
000040 0d f9 54 3d ca d7 26 be af f7 34 3d 8b b4 25 bd
       0.051995326 -0.16293254 0.044181522 -0.040455382
000050 bf 0b 0b 3d 40 28 f7 bc bf cc 63 3e 65 38 ab 3c
       0.03394675 -0.03017056 0.22246073 0.020900914
000060 6e 6b 1a be 6b c2 ed 3d 09 9e 5a 3e 1b c1 10 3d
       -0.15080044 0.11609348 0.21349348 0.03534041
000070 26 f7 11 3e 40 84 3e 3e 74 bb 8d bd 1e 52 3f 3e
       0.14254436 0.18605137 -0.069205195 0.18683669
000080 17 90 67 3e 3f 1b a0 bd b7 29 e6 bd fe f5 34 bd
       0.2261356 -0.07817697 -0.11238425 -0.04417991
000090 84 51 7d 3d 7b 84 0a 3e 8f 6e a3 3c 81 21 c5 bd
       0.061845317 0.135271 0.01995018 -0.09625531
0000a0 4a c3 c6 bd ce ce 44 3d f2 f8 8e 3d 84 e9 54 3e
       -0.09705217 0.048048787 0.06981076 0.20792204
0000b0 2d e5 06 be 84 0a 23 3e 00 9a 81 3d 00 a4 4b bd
       -0.13173361 0.1592198 0.06328201 -0.04971695
0000c0 39 d4 1f bc 1d 38 5b be f1 89 24 be 76 a1 f3 bd
       -0.009755188 -0.21408124 -0.16068245 -0.118960306
0000d0 36 42 0d bd b8 e3 52 be 79 c7 14 3e c2 7a f0 3d
       -0.03448697 -0.2059468 0.14529218 0.11742164
0000e0 45 93 10 3e f8 4e e7 3c d8 7e a7 bd 41 d2 da bd
       0.14118679 0.028235897 -0.081784904 -0.10684634
0000f0 7a 8d 9f bd c0 e6 30 be 97 70 d4 bd 2d 4f cb bd
       -0.077906564 -0.17275524 -0.10373037 -0.09927211
000100 b3 df 34 3e fc 2b 43 3d d0 b5 44 be 51 44 dd bd
       0.1766346 0.04764937 -0.19209981 -0.10804046
000110 5e 60 e7 3d 27 42 ff bd 94 f7 7f bd e5 cb 19 3e
       0.112976775 -0.124637894 -0.06249197 0.15019186
000120 93 91 07 3e ef f6 09 be b1 7f 29 be 34 fc 0a be
       0.13239126 -0.13473104 -0.16552617 -0.1357277
000130 3a cb c1 3d 62 0b 26 be 00 ef 49 3d 80 19 4b 3b
       0.094625905 -0.1621528 0.049300194 0.003099054
000140 70 9e ab bc e1 9c bb 3d d4 74 41 3c 23 8c 46 be
       -0.020949572 0.09160782 0.011807639 -0.19389395
000150 59 c8 3f be 48 32 34 be c1 71 21 be 7a 76 19 be
       -0.1872877 -0.17597306 -0.1576605 -0.14986601
000160 47 9e 1e 3d 47 d4 0e be ab 3e 9f bd 17 33 23 3e
       0.038725164 -0.13948165 -0.07775625 0.15937458
000170 16 e8 06 3d f1 84 fb 3d b3 20 b4 bd 36 59 29 bd
       0.03293618 0.12281216 -0.087952994 -0.041344844
000180 d4 21 f8 bd 75 21 f0 3c a0 9b c8 3d d2 28 dc 3d
       -0.12115827 0.029312829 0.09795308 0.10749973
000190 f9 bb 59 3e 2d ec f1 3d 44 0c d4 ba c8 d4 80 bd
       0.21263112 0.11812625 -0.0016177972 -0.06290585
0001a0 2d 61 d6 3c bd 58 23 3e fd 56 86 bd 9a 2d f6 3c
       0.026169384 0.1595182 -0.065595604 0.030051041
0001b0 8b c3 40 3e 2a f4 9a 39 89 19 eb bd 4e 76 ad bd
       0.18824594 0.00029555085 -0.1147948 -0.084698305
0001c0 cd 65 b3 bc 26 5e d9 3d 3e 2f d2 bd a9 34 32 3e
       -0.021899128 0.106136605 -0.10262917 0.17402901
0001d0 5a 19 2d 3e 8b da fe 3d 89 32 46 3e c4 e0 07 3e
       0.16904202 0.124440275 0.19355215 0.13269335
0001e0 aa d4 cc bd 5f 30 4b bd 05 d7 15 be 7b 14 b9 3d
       -0.100015 -0.049606677 -0.14632805 0.090371095
0001f0 3b 57 07 3e 68 68 e3 bd aa 43 33 be bc 62 4d be
       0.1321687 -0.11103898 -0.1750628 -0.20057195
000200 a8 9c 85 3d 9d 9f 84 3d 78 8d ad 3d 95 cf 1a be
       0.065240204 0.06475756 0.08474249 -0.15118249
000210 35 3e a3 3d c8 bd 08 be d4 56 e5 3c 93 45 4a 3e
       0.079708494 -0.13353646 0.027995504 0.19753103
000220 6e 18 12 3d e6 78 2e be 0e 6e 34 3e 7e 04 37 3d
       0.03566783 -0.17038307 0.17620108 0.04468202
000230 bb 24 9d 3d 3a de 86 3d cd 39 24 3e 44 43 24 be
       0.076730214 0.06585355 0.16037674 -0.16041285
000240 2b 86 13 bd b0 b9 06 be 7f 96 f4 3d a9 6c 16 3e
       -0.036016624 -0.13156772 0.11942767 0.14689888
000250 7f 8d 31 3e 14 13 d1 3d ca d3 83 bd ae f6 1d be
       0.17339133 0.10208717 -0.0643688 -0.15426132
000260 5f ee 3d 3e 7d 79 98 bd 6a b1 06 3e f0 af 3c be
       0.18547963 -0.07445047 0.13153616 -0.1842649
000270 20 4d 05 be 16 db cf bd 04 bb 35 be e8 0c d3 bd
       -0.13017702 -0.10149209 -0.17747122 -0.10305196
000280 45 36 8d 3d 84 bd 5c bd 5c 33 19 3e 10 90 85 3e
       0.06895117 -0.053891674 0.14960998 0.26086473
000290 18 fa f0 3d b4 d5 23 3b 19 0c 43 3e 5e 43 35 3c
       0.117664516 0.0024999203 0.19047584 0.011063425
0002a0 f7 f7 17 3e 74 5b 02 be 3a 6a 71 3b dc 55 89 3d
       0.14840685 -0.12730199 0.0036836998 0.067058295
0002b0 59 81 c6 bd df e5 2b be 6e 77 9a bd 83 6e a4 3d
       -0.0969264 -0.16786908 -0.07542311 0.08028891
0002c0 7c 74 8e bd d6 c1 c2 3d 38 ce 1f be 38 be ac 3d
       -0.069558114 0.095096275 -0.1560601 0.08434719
0002d0 45 09 4c bd 27 82 89 3e 5c 6f 6c 3e f1 cd 0d be
       -0.049813528 0.2685711 0.23089355 -0.13848092
0002e0 18 d0 04 bd ca e2 05 3e 5c 75 c5 3c 0b 84 2e 3d
       -0.032425016 0.13074794 0.024103813 0.042606395
0002f0 13 fc 20 be 29 df 16 be b9 2d cc bd 6d 75 ed 3d
       -0.15721159 -0.14733566 -0.099696584 0.11594663
000300 98 84 84 bd 7f eb 47 bd fc 1c 11 be a9 38 fe 3d
       -0.06470603 -0.04880857 -0.14171213 0.12413151
000310 c4 7c 08 3c db 31 ff 3c 84 63 50 3d 14 da 67 3d
       0.008330528 0.031151703 0.050876155 0.05660446
000320 4c 48 86 bc b3 99 89 bd cd 7f e4 3c fc 5d 5c 3e
       -0.016391896 -0.06718769 0.027892971 0.21520227
000330 c4 a5 17 3e 25 c8 22 bd 94 c3 5a bc 17 6f 98 bc
       0.14809328 -0.039741654 -0.0133522935 -0.01860766
000340 eb e4 f1 bd 1b e5 b4 3d 1b 2d b3 3d 24 cd 09 3e
       -0.11811241 0.08832761 0.087488376 0.13457161
000350 a2 b0 f8 bd 25 d3 3d bd 63 31 2a bc c0 e6 3e be
       -0.12143065 -0.04634394 -0.010387751 -0.18642712
000360 4e da b4 3c 6a 91 fc 3d 5e 58 96 3c 3d 32 a7 bd
       0.022076752 0.12332423 0.018352684 -0.08163879
000370 07 3a 68 bd b0 75 4d 3e 3b a0 ce bd e8 bd 0f 3e
       -0.056695964 0.20064425 -0.10089155 0.14037287
000380 d8 cd 4b 3e 8d 89 18 3e 16 5b b7 bd e1 92 f7 bd
       0.19902742 0.14896221 -0.0895292 -0.12088562
000390 33 bf 31 3e 99 57 45 3d dd 52 a3 bd 77 bd 18 be
       0.17358093 0.048179243 -0.07974789 -0.14916025
0003a0 f2 ba 47 3e 3c 54 bc bd be 6d 24 bd ee ac c1 bd
       0.19504908 -0.09195754 -0.04014372 -0.09456812
0003b0 fa 54 40 bc a7 4c b6 bd c1 fd b0 bd f4 42 ef bc
       -0.01173901 -0.08901339 -0.0864215 -0.02920673
0003c0 9b 2c 84 3c 91 3b c5 bd 25 a4 af 3d 87 65 c4 3d
       0.01613455 -0.09630502 0.0857623 0.09589677
0003d0 3c cc 51 be ee 9e 3c be da 90 c7 3d b6 13 e9 3d
       -0.20488065 -0.18420002 0.09744425 0.11380713
0003e0 18 6d b7 bc f3 5d 74 be 10 59 04 3e a7 0b 7a bd
       -0.022390887 -0.23863964 0.129246 -0.06104627
0003f0 cb 43 07 3e a7 17 5c be 07 29 c7 3b 58 e8 53 ba
       0.13209455 -0.21493398 0.006077889 -0.0008083633

net.0.bias f4 [16]
000000 2c 87 d6 bc 33 c7 3d 3c 4b 5a 96 bd bd a7 88 bd
       -0.026187502 0.011583137 -0.07341441 -0.066726185
000010 45 76 99 3d b7 8f 11 3d b5 92 fa bd 72 45 37 3d
       0.07493261 0.035537448 -0.122350134 0.044743963
000020 a7 c1 04 3e 39 db f4 3d 94 8f 5a be dc 6b 49 be
       0.12964498 0.11955876 -0.21343833 -0.19670051
000030 79 2d bc bd 51 e6 08 3e 5e 5c 57 bc a6 b9 2e be
       -0.09188361 0.13369109 -0.013144581 -0.17063007

net.2.weight f4 [32, 16, 3, 3]
000000 c5 02 52 3d d4 e0 45 3d 3b 49 e0 3d 4a 62 39 bc
       0.051272172 0.048310116 0.109514676 -0.011314938
000010 db 84 4f 3c fc 4c 00 3d e7 e6 ca 3d 26 81 ce bc
       0.012665953 0.031323418 0.099073224 -0.025208067
000020 60 b3 c7 3d 61 a6 2e 3f 5a 2c 7e 3b a0 4c 17 bc
       0.0975101 0.68222624 0.003878376 -0.009234577
000030 8f 38 e7 bd 0a 71 b4 39 04 5b 64 3b ff 82 03 be
       -0.112900846 0.00034416496 0.0034844289 -0.1284294
000040 60 58 26 bd de ae c5 3a e9 0c 86 3d d9 36 99 3d
       -0.040611625 0.0015082022 0.06545431 0.074811645
000050 4f f0 a7 bd 80 8e 7d 3a d9 4b 90 3d bc 52 d6 bc
       -0.08200132 0.0009672418 0.07045717 -0.026162498
000060 97 5a 99 bd ba 1c 5d 3d 32 8d 27 3d 54 27 87 3d
       -0.07487982 0.053982474 0.04090614 0.06599298
000070 ac 74 02 3e e0 22 0c 3e ed 3e 92 3d 08 28 c2 3d
       0.1273982 0.13685179 0.071409084 0.094802916
000080 6d 03 65 3d 6b d8 dd 3d 9a 55 a1 3d 04 bb 77 3d
       0.05591147 0.10832294 0.07877655 0.060481086
000090 df 83 1e 3d c6 2d 9a 3d 24 91 1f bd 06 6f 50 bd
       0.03869998 0.07528262 -0.038956776 -0.05088713
0000a0 08 bd 45 3d 6d 97 75 3d 2d 4d a3 bd 0c 08 1d 3d
       0.048275977 0.059958864 -0.079737045 0.038337752
0000b0 2d 18 da 3c 1d e9 16 be 35 ad c1 bd 0a 55 c0 bd
       0.026622856 -0.14737363 -0.09456865 -0.0939122
0000c0 9e 84 e4 bd 77 13 1b be c1 67 d5 bd 22 41 65 bd
       -0.11158107 -0.15144144 -0.1042018 -0.05597032
0000d0 0c e4 a6 bd d3 50 07 be 89 5f 98 bc 17 70 85 bd
       -0.08148965 -0.13214426 -0.018600242 -0.0651552
0000e0 ff 85 53 bd 99 d8 a5 bc 0a 6a 93 3c b9 76 18 bd
       -0.05164146 -0.020244883 0.0179949 -0.037222598
0000f0 bc 30 20 bd b2 aa a5 bd b7 0f 92 3d 24 41 e1 bb
       -0.039108977 -0.08089198 0.071319036 -0.0068742204
000100 f7 3e 72 3d 99 24 0e 3d 6c 88 25 bd 65 a5 45 bc
       0.05914208 0.03470287 -0.040413305 -0.012063359
000110 f9 21 b0 3d 48 c5 1d bd ed 64 4e 3d 3b ee 5a 3b
       0.0860023 -0.03851822 0.05038922 0.0033406157
000120 f7 eb b5 bc 86 82 9f 3c 69 c5 12 3d 3a d4 e8 bd
       -0.022207243 0.019471418 0.035832796 -0.11368604
000130 8f 9d 29 bd a0 b3 b5 bd a7 75 9a bc 27 5c 99 bd
       -0.041410025 -0.088721514 -0.01885493 -0.0748828
000140 f9 08 7d 3c b9 4d ea 3c eb a5 96 3c e1 dc 8b bd
       0.015444034 0.028601514 0.018389663 -0.06829239
000150 dd 5d 1f bd 2d 67 a7 3d ae cd 3e 3d 88 c8 b0 3d
       -0.038907874 0.08173976 0.04658287 0.08631998
000160 15 96 3f bd 11 8c 59 bd d6 56 af bc f6 b7 97 3c
       -0.04677399 -0.053112093 -0.021403711 0.018520337
000170 ba f4 e6 bc 5c 04 67 3c e0 d0 71 3d aa 03 85 bc
       -0.028192867 0.01410016 0.05903709 -0.016237099
000180 5f ec 42 3d fa ae 33 3d 8d 4d 01 bd 96 f5 a9 3c
       0.047588702 0.043868043 -0.0315681 0.020746987
000190 2b 4b 1b bd ce 31 08 bc 63 6d 6c bd a4 29 ce 3d
       -0.037913483 -0.008312656 -0.057721507 0.10066536
0001a0 10 2a c8 3d 4e 1b d6 bc b9 7f ae 3c ff c1 3e 3d
       0.09773648 -0.026136067 0.021301137 0.046571728
0001b0 c5 a0 20 bc 77 ca f6 3d 79 a4 f2 3d 11 2b 4f 3d
       -0.009803955 0.12050336 0.11847777 0.05057818
0001c0 dc 7f 92 ba c6 17 0d bd 0a 90 27 bd 32 9c 8c 3d
       -0.0011177021 -0.0344465 -0.04090885 0.068657294
0001d0 99 0e 5b bd 62 75 0e 3d 1b 1c 00 3c cd 71 aa 3c
       -0.05348072 0.034779914 0.007819201 0.020806218
0001e0 f9 e0 9e bb ed 68 61 3d 91 7f 79 3c 29 d2 4a bd
       -0.004848596 0.055031706 0.015228168 -0.04951683
0001f0 98 ba ff 3c d4 9a 4b bd 50 e6 7f 3d e9 8b 1a bc
       0.031216905 -0.049708202 0.062475502 -0.009432771
000200 a0 0b 17 3d fe 41 ce 3c 43 a1 34 3d 74 63 d9 3d
       0.03687632 0.025177952 0.044099104 0.10614672
000210 f9 d5 99 3d 9b bc aa 3b d8 5c dc bc 5b 62 14 bd
       0.07511515 0.005210472 -0.02689974 -0.03622661
000220 e2 e4 78 3d f0 36 92 bb c3 d9 97 bd dc f0 e6 3c
       0.060765155 -0.0044621155 -0.074145816 0.028191023
000230 a8 17 15 bc b6 d4 2c bd d4 4e 86 bc 3f 8e 9d bd
       -0.009099878 -0.042195044 -0.01639501 -0.07693147
000240 4d 96 fb 3d 05 1c 54 3c 74 41 61 bd 42 2d 7f 3d
       0.12284527 0.0129461335 -0.05499406 0.06229902
000250 49 07 a5 bd cc 47 62 3c e6 81 a9 3c 3c 4d ac bc
       -0.0805803 0.013811063 0.020691823 -0.021032922
000260 ad 4c 80 3d e4 a1 1c 3f 8f ed b7 3a 37 2a 13 bc
       0.06264625 0.61184525 0.001403259 -0.008982233
000270 85 19 24 bd 13 7f 37 bd 74 2b 15 be e7 53 eb bd
       -0.0400634 -0.04479892 -0.14567357 -0.114906125
000280 c5 85 5d bc 18 bb 1a bc 36 d2 3b 3d 26 9b d4 bc
       -0.013520663 -0.009444021 0.04585477 -0.025952887
000290 14 ce e8 3c 94 25 9e 3c a4 b5 d1 3c ed b1 97 3d
       0.028418578 0.019305028 0.025599308 0.074069835
0002a0 ca 66 57 3d 18 ab 71 3c 39 e1 91 3d 7b 47 ef 3d
       0.05258826 0.014750265 0.07123036 0.11683556
0002b0 61 1e 28 3d fc cd be 3d 90 1e ed 3c 19 c1 42 bc
       0.041044597 0.09316632 0.028945237 -0.011886858
0002c0 fb 1f 1e bd 39 46 48 bd 30 9b 0f bd 0d bb 8f bd
       -0.038604718 -0.048895095 -0.035060108 -0.07018099
0002d0 c6 23 9e 3d 69 a3 8b 3d 10 d8 68 3d 56 65 10 3d
       0.07721667 0.068182774 0.05684668 0.03525289
0002e0 d8 85 36 3d e2 dd 9e bd f3 45 d8 bb 9c ba 55 bc
       0.044561237 -0.077571645 -0.0066001355 -0.013044979
0002f0 30 77 ac bd 44 32 0f be 11 53 04 bc 3e d6 e0 bc
       -0.08421171 -0.13984019 -0.008076445 -0.027445909
000300 e3 a9 3d be 62 d8 e6 3d 2d 97 2c 3d 3e d8 10 bd
       -0.18521838 0.112717405 0.04213636 -0.035362475
000310 87 cf 98 bc 6d c1 07 bd bf 1f 8c bd 5f 28 60 bd
       -0.018653644 -0.03314345 -0.068419926 -0.054726
000320 1f 1c b6 bc 4e 48 d3 3d c6 7f a9 3b 99 d8 2b bd
       -0.022230206 0.103165254 0.0051727025 -0.04195461
000330 b7 a6 f0 bc ed 04 c7 bd 10 33 c3 3d f8 80 3a bd
       -0.02937637 -0.097177364 0.09531224 -0.04553315
000340 0d ce 96 bd 1f 82 87 3d 6c 05 9a bd 21 4e 7c 3d
       -0.0736352 0.066166155 -0.075205654 0.061597947
000350 f4 de 9f 3d f2 1c 3f bd c0 a8 d4 3d 26 87 6f 3d
       0.07806197 -0.046658464 0.10383749 0.058478497
000360 09 2a ae bd 1d 55 d3 bd 63 40 c3 bd ff e6 6b 3d
       -0.08504111 -0.103189684 -0.09533765 0.057593342
000370 4f 43 da bd f4 de 7f ba 21 21 03 be e8 4c b3 bd
       -0.10657369 -0.00097607006 -0.12805606 -0.08754903
000380 3a 37 3d 3c bb 53 50 bd 8f 86 1b bc 72 33 a1 3d
       0.011548812 -0.0508611 -0.0094925305 0.078711405
000390 45 d3 11 3d f7 c2 50 3c 99 41 dc 3c 39 f8 95 3b
       0.035601873 0.012741796 0.026886748 0.0045767096
0003a0 17 59 b7 bc 7a 34 6d bd af 08 51 bd df 48 b9 3d
       -0.022381349 -0.057911374 -0.051033672 0.09047102
0003b0 eb 78 f9 bc c1 4a 74 bd 75 c8 12 bd 93 e5 e5 bd
       -0.030453166 -0.059641603 -0.035835702 -0.112254284
0003c0 5e 67 99 3b 96 66 8b 3d 05 2f 0c be 68 5a 24 bd
       0.004681512 0.06806676 -0.13689812 -0.04012528
0003d0 7b 5d ac 3d b0 73 57 3d cf ff 9a 3d 91 d6 c3 3c
       0.084162675 0.052600563 0.07568323 0.023906024
0003e0 d3 d4 ae 3c eb 07 8a bc 26 fb 9a bc a8 a6 04 bd
       0.021341717 -0.016849479 -0.018918585 -0.0323855
0003f0 2a 6c e0 3d 0d 72 f5 3c 93 91 65 3d d8 83 45 3d
       0.10958131 0.02996161 0.056047034 0.04822144

net.2.bias f4 [32]
000000 bb 90 73 bd 07 10 b6 bb 5a 39 9f bb dd ac b8 3d
       -0.059464198 -0.00555611 -0.0048591318 0.09017346
000010 69 48 15 3d ed 14 d5 3c b5 75 82 ba f1 f1 3e 3d
       0.03644601 0.026010955 -0.0009953292 0.046617452
000020 d8 e6 45 3d ee a5 72 bd 1b f5 f3 3d f4 81 a4 bd
       0.048315853 -0.059240274 0.119119845 -0.08032599
000030 c3 7f 4c 3c 3e 21 26 bc 81 b5 8b 3c f6 e2 62 bd
       0.012481633 -0.0101397615 0.017054321 -0.055392228
000040 24 8d 23 bd c9 2a cb bd c2 01 16 bd 5e 96 b3 bd
       -0.039929524 -0.0992027 -0.03662277 -0.08768915
000050 50 de 2c bc 8a f3 46 3d c8 ab 89 3d 14 95 51 3d
       -0.01055105 0.0485721 0.06722218 0.051167563
000060 12 a1 b6 3d a7 de db bc 06 de 9d 3a 32 a2 cb bd
       0.089174405 -0.026839567 0.0012044318 -0.09943046
000070 05 08 48 3d 3e 22 05 3d d2 da 9f bd 58 b4 19 bc
       0.048835773 0.03250336 -0.078054085 -0.009381376

net.5.weight f4 [64, 800]
000000 2a 21 b8 3c 1d 3a b8 bc 00 fa 23 bc c2 4a bf 3c
       0.022476751 -0.022488648 -0.010008335 0.023351077
000010 40 1a e5 bc eb a2 17 bc 4d b7 1d bd 2a 42 dd 3b
       -0.027966619 -0.009255151 -0.038504887 0.006752272
000020 7f c9 89 3c 1d 54 a0 3c 59 3f ca ba e3 84 e1 3c
       0.016819714 0.019571358 -0.0015430256 0.027529186
000030 53 5e 9c 39 cc b5 bc 3b d3 80 a9 bc 0d 97 03 bd
       0.00029824916 0.0057589766 -0.020691311 -0.032126475
000040 97 0b ea 3c c9 7d a4 3b 99 f0 20 bb 27 83 9c bb
       0.02856998 0.0050198776 -0.002455747 -0.0047763768
000050 01 e5 18 3c c3 2b dc bc 1a f0 da bc ca cd a0 bc
       0.009331943 -0.026876336 -0.026725817 -0.019629378
000060 f6 54 05 bd 98 4f 01 3d 43 69 58 bc 55 a6 bf bc
       -0.03255173 0.031570047 -0.01320869 -0.023394743
000070 53 e7 06 bd ca fc 0f 3c 17 4c 1c 3d 97 d7 21 3d
       -0.03293545 0.008788297 0.038158502 0.039512243
000080 30 66 11 3d e4 27 fc 3c 31 7c df 3b ce 9c 94 bb
       0.035497844 0.03078074 0.0068202247 -0.004535294
000090 7d c7 c1 3b 3a dd 1e 3c 9e e6 bd bb 22 c0 07 3c
       0.0059136734 0.009696299 -0.005795314 0.008285554
0000a0 30 a7 8c bc 0b df 96 3c 4f 43 c2 3c ed 46 43 bb
       -0.017169565 0.018416902 0.023713736 -0.0029796914
0000b0 f7 74 e0 3b 74 c5 62 bc 71 c2 69 3c 00 27 49 3c
       0.006849881 -0.013841022 0.01426755 0.012277365
0000c0 51 85 a5 3c 17 74 ca bc 0c ae b1 bc f2 4b c0 3b
       0.020205172 -0.02471356 -0.021689437 0.0058684284
0000d0 4f 25 da 3c ad cc dd bc 8e c8 be bc 48 1d d3 bb
       0.026629118 -0.027075136 -0.023288991 -0.0064426996
0000e0 a9 59 40 bb 40 87 42 3b 9d c7 f9 3b 6f 4e f0 3c
       -0.0029350317 0.0029682666 0.0076226727 0.029334275
0000f0 0c 81 cd 3c 95 9e 9e bc c1 ea 9b 3c d3 19 c7 3c
       0.025085948 -0.019362727 0.019032838 0.024304306
000100 31 6a bb bc 00 2c 9d 3b d9 05 b2 bb 1e 64 dc 3c
       -0.022877784 0.004796505 -0.005432826 0.026903208
000110 8a 9b 01 bd 4a b0 27 3c c4 30 b5 3c 56 e6 b1 3c
       -0.031642474 0.010234902 0.02211798 0.021716278
000120 fd ff 8f bc e1 7f ec bc bc c6 25 bc ba 1b 0a bd
       -0.01757812 -0.028869571 -0.010118183 -0.03371785
000130 c7 b0 69 3c 1d 05 64 bc 4f 9d 25 bd ef d0 30 bd
       0.014263338 -0.013917235 -0.040433224 -0.043168005
000140 1c 3a 2d bd 41 59 c4 3c 3c 54 b8 bc 64 7b b6 3c
       -0.042291746 0.02396834 -0.022501104 0.022275634
000150 30 14 c3 bc 6c ec a9 bb fe 0c 56 3b ac 0a 9f bc
       -0.023813337 -0.0051856544 0.0032661553 -0.019414268
000160 67 30 da 3c cc 27 c4 3c 87 92 c0 3b 04 79 83 bb
       0.026634408 0.023944758 0.0058768424 -0.004012229
000170 c4 08 a0 bc 30 9f f4 bc c4 db 22 38 91 c2 b9 bc
       -0.01953543 -0.029861063 3.8828483e-05 -0.022675784
000180 24 6a 7a 3b 1f 36 9c bc e7 05 2f bc e7 b2 67 bc
       0.0038210237 -0.019068776 -0.01068256 -0.014141775
000190 55 38 27 3c d0 62 e4 3c 59 8a 55 bc 73 42 9e bc
       0.010206302 0.027879149 -0.013033473 -0.019318795
0001a0 a8 0f d6 bc 8c 78 ea bc d1 29 84 bc e5 68 01 bd
       -0.026130512 -0.028621934 -0.01613322 -0.031594176
0001b0 22 70 1b bc 6d 76 31 3c 58 cf c7 3c 75 f3 d0 bc
       -0.009487184 0.010831458 0.024390861 -0.025506714
0001c0 04 20 de bc bc 20 b8 bc 1a 85 5f bc 38 7b eb 3c
       -0.027114876 -0.022476546 -0.013642574 0.028745279
0001d0 1b b4 c5 bc cf 13 6d bc 32 dc 80 3c 2b 24 de bc
       -0.024133733 -0.014470055 0.015729997 -0.027116856
0001e0 56 6a 86 bc 7c dc 6d bc 64 fc 17 bb 99 26 9a 3b
       -0.016408127 -0.0145179 -0.0023191208 0.004704308
0001f0 d4 e9 3d bc b9 de 09 bd bc 26 b3 bc df 12 53 bc
       -0.0115913935 -0.03365967 -0.021869056 -0.012882917
000200 d6 1e 38 bc b3 02 0d bd 1f a3 ad bc 71 1d c5 bb
       -0.011237821 -0.034426402 -0.021195946 -0.0060154726
000210 ae 04 96 3c 68 b5 e2 bc e1 42 1b bd b1 35 07 bd
       0.018312778 -0.027674392 -0.037905578 -0.03301019
000220 aa 05 2e bb 73 4d 8c 3b 89 6f 2a bc 31 35 59 3c
       -0.002655367 0.0042816936 -0.010402569 0.013257311
000230 d6 77 7b bc 96 27 e1 3b 56 30 77 3c d7 81 eb bc
       -0.015348395 0.006871174 0.015087208 -0.028748436
000240 71 fd a8 3c 2c 8a 98 bc d3 97 0d 3c 8f 92 2c 3c
       0.020628663 -0.018620573 0.008642155 0.010532989
000250 3a 3b e1 bb 3c 75 01 bd 54 c0 0e bd 19 2a a5 bc
       -0.0068735154 -0.031605944 -0.034851387 -0.020161675
000260 f2 c1 8f 3b 29 07 03 bd 64 a8 be 3b 32 73 b7 3c
       0.0043871338 -0.03198925 0.0058184136 0.022393797
000270 16 d8 98 bc 13 aa 0e bd 5e 10 84 bc db 87 89 bc
       -0.018657725 -0.034830164 -0.016121086 -0.016788414
000280 d1 39 20 3c 58 cd 9a bc 12 0a ef bc 59 6d fe 3b
       0.0097794095 -0.018896744 -0.029179607 0.0077645
000290 be c1 d4 3c 22 e7 ea 3c 9d 7e 24 bd 1e bb 08 3b
       0.02597129 0.028674666 -0.04015981 0.0020863484
0002a0 86 b8 b7 3c 6f 8e 13 bd 13 03 cf 3b ed 22 c6 3b
       0.022426855 -0.036024507 0.006317505 0.006046644
0002b0 63 ea 81 bc b0 3f b7 bc 9d 0d de bb e4 cb cd bb
       -0.015858835 -0.022369236 -0.006776525 -0.006280409
0002c0 25 42 d4 3c 5a e2 f3 bc 14 ff af 3a 54 90 17 bd
       0.025910446 -0.029771019 0.001342746 -0.037002876
0002d0 73 bd 00 bb 32 4e 53 3c ae ca c7 3c 49 4f 7f bc
       -0.001964417 0.012897061 0.024388637 -0.015582868
0002e0 72 db 90 3b ed 64 87 3c ec 8f b0 3c 69 c5 30 bd
       0.004420691 0.016527617 0.021553002 -0.043157015
0002f0 99 7a 96 bb 40 80 25 bc cf cb 01 3d 38 f9 67 bd
       -0.0045922515 -0.010101378 0.031688508 -0.056634158
000300 f4 eb 0c bc 19 98 5a bd 8e 3b c4 bc f5 50 e9 bc
       -0.0086011775 -0.053367708 -0.02395418 -0.028480986
000310 5d 65 97 bc e1 74 92 bc d4 d0 62 bd 72 07 21 bd
       -0.018480951 -0.017877998 -0.055374935 -0.03931374
000320 40 0d 42 bc 7f 7d 8c 3c 71 1c 2f 3c 8c a7 42 bb
       -0.011843979 0.017149685 0.010687933 -0.0029701917
000330 21 53 d2 3c 9a f5 9c bc 25 57 aa bc 2d ca 8c ba
       0.025674405 -0.01916008 -0.020793507 -0.0010741405
000340 f0 a6 ac 3b 9a 15 cb b9 d2 ac 0e bb 1e f9 77 bc
       0.005268924 -0.00038735272 -0.002177049 -0.015135078
000350 36 0e a4 3c bc 13 cc 3c 43 b3 8a 3c 72 07 9d bc
       0.020026308 0.024911754 0.016931182 -0.01916859
000360 1d 87 12 3c 8c 33 3e bc 9d 4b dc bb bf 50 f6 bc
       0.008943346 -0.011608969 -0.006722881 -0.0300678
000370 db c4 08 bc 43 3f c7 bc 94 a7 e7 bc 09 9e 3b 38
       -0.008347715 -0.024322158 -0.02827815 4.4731456e-05
000380 f3 e7 93 3a 5f 33 ae bc 57 12 04 3d 98 f1 da 3b
       0.0011284336 -0.02126473 0.032244053 0.0066816323
000390 8c 6c 9f 3c ac 0e 0f bc 40 82 aa bc 33 60 d2 bc
       0.019460939 -0.008731525 -0.020814061 -0.025680637
0003a0 b4 b5 8d 3c 30 4c 2a 3b 08 dd 5d 3c 29 b7 82 bc
       0.017298557 0.0025985353 0.0135414675 -0.015956478
0003b0 46 3e ac 3c 9a 46 e9 3c 28 87 44 3c e5 2a 01 bd
       0.021025788 0.028476048 0.011995114 -0.031535048
0003c0 a6 48 1e bc 1c 5f 1b bc 42 54 bf 3c b4 0d db bb
       -0.009660875 -0.009483125 0.023355607 -0.006684983
0003d0 9a 1c e0 3c 8a 2e fa 3c 7c 86 94 bc d5 2c a1 bc
       0.027357388 0.03053977 -0.018130533 -0.019674698
0003e0 6b e4 89 bc 3a 5d 43 bc b7 32 cd 3c ec db 7b 3b
       -0.016832551 -0.011924082 0.025048597 0.0038430644
0003f0 b7 dc 96 bc 17 12 3f bb 61 44 a8 3c 85 67 55 bc
       -0.018415792 -0.002915507 0.020540418 -0.013025169

net.5.bias f4 [64]
000000 fb 37 f5 3b bc 2b 42 3c 01 10 8e bc d8 e6 a7 bc
       0.00748348 0.011851247 -0.017341616 -0.020495817
000010 1f 8d 05 bd 2d a5 d2 bc 4e 35 a5 bc 76 41 c0 3c
       -0.032605287 -0.025713528 -0.02016702 0.023468714
000020 c8 7b 98 3c e3 de cb bc 2e e4 47 bb 76 df 73 bb
       0.018613711 -0.024886554 -0.0030500996 -0.003721205
000030 2b cd 48 bd 45 9c 9a bc b1 f9 aa 3a 55 2f d3 3a
       -0.04902379 -0.018873343 0.0013044385 0.0016112129
000040 51 ae bc 3c 25 ca 72 3c 4e f9 f2 bb 35 3a 9a bc
       0.02303234 0.014818703 -0.0074149733 -0.018826583
000050 99 3b 7d 3c 37 ee ee bc 40 c4 65 bb 3d 23 9b bc
       0.015456104 -0.029166324 -0.00350596 -0.018937701
000060 2c 30 d9 bc 04 10 ee bb fe e0 22 3d 9e c2 fe 3b
       -0.026512228 -0.007265093 0.03976535 0.007774665
000070 16 b6 8a 3a e1 87 1b bc 67 d0 b1 3c 04 da 18 bd
       0.001058283 -0.009492845 0.02170582 -0.03731729
000080 51 e3 2d bd e1 22 2d 3c ac fc 3a bc 5b f4 82 3c
       -0.042453114 0.010567398 -0.011412781 0.015985658
000090 32 6d 77 bc 0e 6f 8c bb f8 53 f9 bc 54 55 05 bd
       -0.015101718 -0.0042856997 -0.030435547 -0.03255208
0000a0 be 58 87 bc 1c d0 04 3d 87 72 d5 bc b1 1f 77 bc
       -0.016521808 0.03242503 -0.026055587 -0.015083239
0000b0 b2 cc ee bb cf 55 93 3c 10 fa 2f 3d 10 9e 1d 3d
       -0.007287585 0.017985253 0.042963088 0.03848082
0000c0 dc 72 df bc 91 4a 08 bc ca dd 87 bb 89 c9 17 3c
       -0.027276449 -0.008318559 -0.0041463124 0.009264358
0000d0 a1 7e ce bb dc c7 92 3c 01 1e 28 bb 6e 33 ce bc
       -0.0063017164 0.017917566 -0.002565265 -0.025171008
0000e0 b0 f7 1e 3d 6d a1 0f bc 57 79 c6 39 ee 10 29 3c
       0.038810432 -0.008766514 0.00037855908 0.010318978
0000f0 03 16 37 bc 6c 36 1c 3c fd e3 af 3c 5a cb 00 bb
       -0.011174682 0.00953446 0.021471018 -0.0019652457

net.7.weight f4 [2, 64]
000000 ed 27 79 bd 2c 69 37 3e a5 92 47 be 97 92 d4 3d
       -0.06082909 0.17911214 -0.19489534 0.10379522
000010 76 88 8e bc 54 03 47 bd 31 e8 58 3e 7d 4f e7 3d
       -0.017399054 -0.04858716 0.21182324 0.11294458
000020 58 bd 55 bd 9a ea 3b be 04 b7 72 3d 3e 82 43 3e
       -0.052182525 -0.18351212 0.05925657 0.19092652
000030 d1 03 66 3d 0c 4c 07 3e 15 4b d0 bd a8 23 29 3e
       0.056155983 0.13212603 -0.10170571 0.16517508
000040 9e 30 0c be 85 e5 50 bd 16 9b 4e be cf 4e 39 3c
       -0.13690421 -0.051000137 -0.20176348 0.011310293
000050 9c 97 51 be a2 62 bc bc d0 c6 2f 3d 54 95 95 bd
       -0.2046799 -0.02299625 0.04291421 -0.07303873
000060 12 4a 07 3d a3 2f 72 bd bf c7 f3 bd 83 18 15 bd
       0.033029623 -0.05912746 -0.11903333 -0.03640033
000070 4c 8d f8 3c d9 4d 86 3d 3b 15 57 be 34 08 95 bd
       0.030340813 0.06557817 -0.21004193 -0.07276955
000080 9d e6 28 bc c1 41 31 3e 57 67 2a 3e e2 4d 2f be
       -0.010308889 0.1731024 0.16640984 -0.17119554
000090 a3 c6 8a 3d 11 69 74 3d 07 7c ad bd da bd 31 3e
       0.06776168 0.05967051 -0.08470922 0.17357579
0000a0 ab 59 c5 3d 57 86 08 be ff aa da bd 53 40 cf 3d
       0.096362434 -0.13332497 -0.10677146 0.10119691
0000b0 30 f5 5a bd af 9f 13 3e 94 e6 48 be 31 a3 a8 3d
       -0.053456485 0.14416383 -0.19619209 0.08234251
0000c0 bc 10 8a bc f7 28 d8 bd d3 ea 49 bc f9 ba aa 3d
       -0.016853683 -0.105546884 -0.012324053 0.083364435
0000d0 db 99 2a 3e a3 7d 33 be fd b6 df 3d 6a e8 4a 3e
       0.16660254 -0.17528395 0.10923574 0.19815221
0000e0 ec 9c 54 be 7c 24 b8 bd ce 20 8a be 1f c3 c3 3d
       -0.20762986 -0.08991334 -0.26978153 0.09558701
0000f0 0e 51 7f 3c 41 ee a2 be 8e cd 40 be 2c e3 80 bd
       0.01558329 -0.31822398 -0.18828413 -0.062933296
000100 52 eb 97 ba 7a 2c ca bd bf c5 de 3d b5 7f 23 be
       -0.0011590517 -0.098717645 0.10877561 -0.15966685
000110 bc c4 cd 3d f2 59 9c bd 25 ec ba bc f3 62 76 bd
       0.1004729 -0.07634343 -0.02281768 -0.06015296
000120 4c 13 22 bd 03 f4 4d 3e 84 91 4c be 4b 24 f1 bd
       -0.039569184 0.20112614 -0.19977385 -0.117745005
000130 9d 72 3d be d5 09 ea bd 24 c9 06 3e c3 14 fa bd
       -0.18500753 -0.114276566 0.13162667 -0.12210991
000140 54 fa b5 3d fc 2d 2f 3e a0 3a 40 3e c2 7f db 3b
       0.08885637 0.17107385 0.18772364 0.0066985795
000150 2f 72 d6 3d 9c e8 99 3d 1e 43 32 be 00 3b c3 bb
       0.104709975 0.0751507 -0.17408416 -0.005957961
000160 78 13 45 be a6 3e 2c bd 5b df 51 3e 7a f3 06 bd
       -0.19245708 -0.042051934 0.2049536 -0.03294704
000170 e5 9f ac 3d 1f 3b 65 3d 86 d7 49 3e 52 18 0f 3d
       0.08428935 0.055964585 0.19711122 0.034935303
000180 57 f1 a4 3c 4f 2a bb bd 49 b3 dc bc 2c 08 07 3e
       0.020134611 -0.09138929 -0.026940959 0.13186711
000190 3b 2e ce 3d 08 35 f7 3c d5 42 93 bd 4c f9 35 bb
       0.100674115 0.030176654 -0.071904816 -0.0027767
0001a0 7e 35 10 be c4 e0 e4 3d 2d 55 8e 3d 95 33 57 39
       -0.14082906 0.11175683 0.0694984 0.00020523214
0001b0 39 f2 f1 3d 9c 91 44 be 27 16 36 3d e5 82 b3 bd
       0.118137784 -0.1919617 0.04445472 -0.087652005
0001c0 5b d8 a5 3d dc bd f1 3d d6 b6 3a be 34 ad 92 3c
       0.08097907 0.11803791 -0.18233809 0.017904855
0001d0 3f 9f f3 bd 2c 26 eb 3c d1 bd cc bd 88 4b 54 be
       -0.11895608 0.028704725 -0.09997142 -0.20731938
0001e0 29 16 43 3e 76 7a a7 3c fb b1 5e 3e c5 52 66 3d
       0.19051422 0.020444136 0.21747582 0.05623128
0001f0 1f 37 9a 3d bb c7 2b 3e 39 a0 da 3d 14 f9 dd bd
       0.07530045 0.1677541 0.10675091 -0.108385235

net.7.bias f4 [2]
000000 86 7a c2 3d c9 8d 62 bd
       0.09496026 -0.055310998
