cnn_model.pth (torch, 8749 bytes, 6 tensors)

net.0.weight f4 [8, 3, 3, 3]
000000 30 8e 12 be 11 25 0b 3e 20 7d ec bd 0a ab c9 bd
       -0.14312053 0.13588358 -0.11547303 -0.09847076
000010 f2 e5 67 3e 63 d2 06 3e fd c4 90 3c be f3 0a be
       0.22646311 0.13166194 0.017672056 -0.13569543
000020 1b ea 43 3e b8 fe 1e be c9 af 19 3e 65 5b 1f 3b
       0.19132273 -0.15526855 0.15008463 0.002431595
000030 5c c6 34 be 24 b2 31 3e 63 e2 3b 3c 2a fd 19 be
       -0.17653793 0.17353112 0.011467549 -0.1503798
000040 1b 3a 1e be b8 7a eb 3b 5f c6 13 3e 70 ad 8f bb
       -0.15451853 0.00718626 0.14431141 -0.004384689
000050 46 aa d3 bd 04 41 1a bc 00 65 a3 3d 80 89 5e 3e
       -0.103352115 -0.009414915 0.079782486 0.2173214
000060 2a 4e e0 bc f5 e9 cf bd de 3d 0d be 46 b8 26 be
       -0.027381022 -0.10152046 -0.13793132 -0.16281232
000070 b1 6f 09 be da fd 21 3e 4f b6 0b 3e aa 5d 24 3e
       -0.13421513 0.15819493 0.13643764 0.16051355
000080 db a5 16 be 19 0a db bd 06 41 54 3e 1d ce 90 3d
       -0.14711706 -0.10695285 0.2072793 0.07070563
000090 c7 14 55 be f0 42 28 be dd 0e fd 3d 05 00 45 bd
       -0.20808707 -0.16431785 0.123563506 -0.04809572
0000a0 c9 d2 e5 3d fe 7f 67 bd 75 75 4b 3d 28 7d 31 3e
       0.11221845 -0.056518547 0.049672563 0.173329
0000b0 91 a6 9d bd 7f 43 a4 3d 58 57 46 be 97 38 0a 3e
       -0.07697786 0.08020686 -0.19369256 0.1349815
0000c0 a2 e3 2d 3e a1 ee ef bd 82 82 1e 3d 7a 4e 0f 3e
       0.16981366 -0.11715437 0.03869868 0.1399478
0000d0 54 46 66 3d 7b b1 0e 3e 20 05 39 3d ac ce 4c 3e
       0.056219414 0.13934891 0.045170903 0.20000714
0000e0 34 aa 20 bd 80 78 dd bd a3 5d ef bd 60 88 af bd
       -0.03922482 -0.10813999 -0.11687782 -0.08570933
0000f0 59 a7 a6 3c 8e 4e 62 3d 9e 14 d1 3d ab 6e b8 bd
       0.02034347 0.055250697 0.102090105 -0.09005483
000100 ef 70 9d 3c 8e 40 77 bd 0c 1c c0 bd 72 ac d7 bc
       0.01921889 -0.0603643 -0.093803495 -0.026327346
000110 b5 8b 30 3e 9b 3a ed bc 04 31 4d 3e d0 ef 0a be
       0.17240794 -0.02895861 0.20038229 -0.13568044
000120 da 6e 00 be c2 9b 85 3c 8f 8b 99 3d 77 8c 7e bd
       -0.12542287 0.016309623 0.07497322 -0.062145676
000130 ed 24 e9 3d 38 67 4c 3d 36 4d 45 be 30 6c 4c 3e
       0.11383996 0.049903125 -0.19267735 0.19963145
000140 75 dd de 3c d5 34 2c 3e d0 0f 06 be a0 67 91 bd
       0.027205208 0.16817029 -0.1309197 -0.07099843
000150 31 5f 51 3e c4 ad 5d 3e 51 c7 b5 3d 87 f8 2f 3e
       0.20446469 0.21648318 0.08875907 0.1718465
000160 07 06 90 3c 55 ae 16 be e2 f0 e4 bd 93 bb 3f 3d
       0.017580999 -0.1471494 -0.11178757 0.046809744
000170 c9 bf a2 bd 16 f3 1d 3e cc 08 34 3e 48 58 dd bd
       -0.07946736 0.15424761 0.1758148 -0.10807854
000180 89 bb 1b 3e 02 07 3c bd c5 d4 66 3d 22 cb 89 bc
       0.15208258 -0.04590512 0.056355257 -0.016820494
000190 31 73 81 bd b5 24 15 be 0d 06 3d 3e 96 76 53 3d
       -0.06320799 -0.14564784 0.1845934 0.051626764
0001a0 55 91 69 bd ec 97 dd 3d c2 f8 c6 bd 8d 1e 1f 3e
       -0.057023365 0.108199924 -0.097154155 0.15538998
0001b0 6f ba 02 3e 61 5a 1c 3e 60 23 ca bc 78 58 1a bd
       0.12766431 0.15268852 -0.024675071 -0.037682027
0001c0 16 0c 10 be 56 70 dc 3d 74 7e e7 bd 81 07 89 bd
       -0.1406711 0.10763614 -0.11303416 -0.066908844
0001d0 39 58 ee 3d 9d c5 76 bc ad 59 a6 bd 84 d5 85 bd
       0.11637921 -0.015061763 -0.08122573 -0.065348655
0001e0 e5 f5 49 3d 6f 00 d5 bd b3 5e 23 3e a0 88 ed 3d
       0.04930677 -0.10400473 0.15954094 0.11598325
0001f0 10 34 28 3e a4 ad 10 3e c5 c2 e8 3c a8 2e b2 3c
       0.1642611 0.14128739 0.028413186 0.021750763
000200 ed 90 3d 3d 62 a9 62 3e ab 46 06 3e 8d 6e ea 3d
       0.04628079 0.22134927 0.13112895 0.11446867
000210 b2 a5 af bd 2b f7 41 bd 02 a1 a9 3c 6e 41 3f be
       -0.08576526 -0.04735486 0.020706657 -0.18677303
000220 81 b3 92 bc e7 2c c1 bd e8 f0 e7 bc 6d e5 0c be
       -0.01790786 -0.094323926 -0.028313115 -0.13759394
000230 19 2f aa bc f1 dd 04 3e d9 c9 e2 3d 4b 35 25 bd
       -0.020774411 0.12975289 0.11073656 -0.040334027
000240 aa d8 a7 bc 92 20 ff bd 4e 7d eb bd 68 bb 0d bc
       -0.020489056 -0.12457384 -0.11498509 -0.008650638
000250 52 9f 4e 3e 08 31 1d 3e cf 0c 08 3e 4a 57 7c bd
       0.20177963 0.15350735 0.13286136 -0.061606683
000260 eb f4 d8 3d e4 1d e7 3c 52 dc 8f 3d 2f 24 f6 3d
       0.105935894 0.028212495 0.07024445 0.1201862
000270 45 c0 86 3d 4e 9a 9f bc ed ec 1f 3e fb 44 70 bd
       0.06579641 -0.019482758 0.15617724 -0.058659535
000280 89 2c d7 bd 19 91 6a 3e 11 2f 98 3d d1 06 38 be
       -0.10506541 0.22906913 0.07430852 -0.1797135
000290 47 78 a8 3d 51 d1 ac bd 79 f9 e4 3d 0d 2e ed 3d
       0.08226066 -0.084383614 0.11180396 0.11581049
0002a0 78 4f 0f 3c 88 a4 7b 3d 17 51 44 3e ad 42 7c bc
       0.008746974 0.061436206 0.19171558 -0.015396756
0002b0 1b f7 8e 3d 1c b8 0d 3e 47 52 ae bd 0e 87 ac bc
       0.069807254 0.13839763 -0.08511787 -0.021060493
0002c0 10 a1 1c be 4d 52 d6 3d 06 45 f9 bd 90 39 02 3d
       -0.15295815 0.104649164 -0.12171368 0.031793177
0002d0 50 48 31 3e d8 e1 30 3d bf b0 fe bd c0 09 6f 3d
       0.17312741 0.04318413 -0.124360554 0.058358908
0002e0 7e 86 30 3e 89 b3 22 3e 16 7b 29 3e 50 93 1f 3e
       0.17238805 0.158888 0.1655086 0.15583539
0002f0 61 32 8a 3d ec 6c 23 3e d3 7a 0e 3e 03 81 40 3d
       0.0674789 0.15959519 0.13914041 0.046998035
000300 59 88 4c 3e b4 37 a1 bb 1d 75 0d be 52 86 81 3c
       0.19973888 -0.0049199704 -0.13814206 0.01581112
000310 93 e7 13 be ee 10 e7 3d 55 6e 3c 3e 36 c3 29 be
       -0.14443807 0.11282526 0.18401463 -0.16578373
000320 7e c6 42 3d 07 60 26 3e 65 86 41 3d 8b 2e 1f 3e
       0.04755258 0.16247569 0.04724731 0.15545098
000330 1f d9 0c be c1 7d 29 be 4a e8 07 3e e6 06 41 3e
       -0.137547 -0.16551878 0.13272205 0.18850288
000340 6b 3d 17 be 5c 80 21 be 38 75 a6 3c e1 46 ec bd
       -0.14769523 -0.15771621 0.020319566 -0.115369566
000350 ed 3a 0d 3e 6b 7a c5 bd c6 e7 0c be 6f 99 a2 3d
       0.1379201 -0.0964249 -0.1376029 0.079394214

net.0.bias f4 [8]
000000 0d e0 e5 bd 5b e7 ff 3d 7a 2e 00 bb 6e 20 1a 3e
       -0.11224375 0.124952994 -0.0019558952 0.15051433
000010 16 30 12 3e 51 c8 1f bd 4c 29 d8 bd 63 97 2b be
       0.14276156 -0.039009396 -0.10554752 -0.16756968

net.3.weight f4 [16, 72]
000000 3f 37 b4 3c 78 4f 1a bc a0 96 3f bc 08 09 61 3c
       0.021999 -0.009418361 -0.011693627 0.013735063
000010 e2 28 b3 bd 80 43 56 bb 31 f2 f8 bd 3d bb 4c bc
       -0.08748032 -0.0032694042 -0.12155569 -0.012495813
000020 5d ff 11 bc cc ea be 3d fc 49 15 3d 63 f2 80 bd
       -0.008910981 0.09322128 0.03644751 -0.062962316
000030 e3 44 cd bc 63 15 ca bd 90 7a db 3d 68 25 e3 bb
       -0.025057262 -0.098673604 0.10716736 -0.0069319494
000040 df 74 09 3d cf 1e 60 3d bf 85 8e 3c 12 56 2c bd
       0.033558723 0.05471688 0.01739776 -0.04207427
000050 8f 1d 08 bd 1b 93 63 bd 60 76 17 bd 10 d3 cb bb
       -0.033231314 -0.055560213 -0.036978126 -0.006220229
000060 d6 5d 31 3d 96 60 7b 3d 49 3d 8a 3d 1e 28 33 3d
       0.04330238 0.06137141 0.067499705 0.04373943
000070 7f c1 3e 3d 17 68 21 bd c2 f0 18 bd 60 98 cf bc
       0.04657125 -0.03940591 -0.03733898 -0.025341213
000080 74 d4 a3 bd af 35 55 bd 1f a2 fc 3c 58 6f c6 bc
       -0.079995066 -0.05205315 0.030839024 -0.024223015
000090 19 b6 58 3d dc 7d 7b bc a6 9a 38 3d 00 40 b9 bd
       0.052908037 -0.015349831 0.04506936 -0.0904541
0000a0 1e 96 70 3d 2d 3d d9 bd bc e9 b3 bd 13 20 66 bd
       0.058736913 -0.106073715 -0.08784816 -0.056182932
0000b0 41 76 c2 3c 0d c4 23 bd 45 cb e4 bd c4 ad 81 bd
       0.023738028 -0.03998189 -0.11171583 -0.06331971
0000c0 0d a6 0a bd 59 65 c3 bd 23 b6 b4 3d e4 ac 9a bd
       -0.033849765 -0.09540815 0.08823802 -0.075525075
0000d0 cf b6 da bd dc ce b4 3c 3a 69 d9 3d d3 81 2f 3d
       -0.10679399 0.022071294 0.106157735 0.04284842
0000e0 d6 fe c6 bc aa 93 dc 3c ea d5 7e bd e4 81 3a 3d
       -0.024291437 0.02692588 -0.062215723 0.04553403
0000f0 81 63 ad bc 66 9d 32 3d 48 08 f6 bd 8e dc e7 bd
       -0.021165611 0.043607138 -0.12013298 -0.11321364
000100 da 68 2b 3d 95 a7 a2 bd 68 cd fa bc 41 35 ef 3d
       0.04184804 -0.0794212 -0.030615523 0.11680079
000110 72 6f 3c 3d b8 a7 43 3c bb 46 d6 3d 0f 0e db bc
       0.04600472 0.011941843 0.104627095 -0.026740102
000120 d1 3b 02 be e6 78 9b bd f7 41 ac 3d 8e 61 2d bd
       -0.1271813 -0.07591419 0.08411019 -0.042329364
000130 f8 2e 28 bc 28 29 dd bd 9f 25 07 be 1b ad 91 3d
       -0.0102651045 -0.107988656 -0.13197945 0.071130954
000140 1c af 02 be 92 23 8a 3d ff 3f 8c bd 18 47 3f bd
       -0.12762111 0.06745066 -0.06848144 -0.04669866
000150 a4 03 5e bd e8 ff 70 bd e8 52 d4 bc 34 e8 37 bd
       -0.05420269 -0.0588378 -0.025918439 -0.04489918
000160 27 cd 7e 3d 4d 0e 05 3d 8e 54 97 bd 07 d6 94 3d
       0.062207367 0.03248434 -0.073891744 0.07267385
000170 3f f6 1b 3e de c2 f0 bd 88 e4 59 bd f7 09 a2 bb
       0.15230654 -0.11755918 -0.05319646 -0.0049450356
000180 7c d0 85 bd e0 52 ec bc 94 a2 48 bc bc 68 ad 3c
       -0.06533906 -0.028848112 -0.012245793 0.021168105
000190 14 7d 3b bd c4 d4 c6 3c c3 37 8a 3c 77 66 84 3d
       -0.04577358 0.024271376 0.016872292 0.06464856
0001a0 0d f9 6c bc 29 72 ec bb 22 09 37 bd 4f 1a a9 bd
       -0.014463675 -0.0072157574 -0.044686444 -0.08256971
0001b0 4c 6f c2 3c 0c 18 c6 3c c1 2e f6 3d e6 e5 03 3d
       0.023734711 0.024181388 0.12020636 0.03220167
0001c0 a1 c1 c3 bd 15 d4 9b 3d 73 32 b3 bd a4 f9 72 ba
       -0.09558416 0.07608811 -0.08749857 -0.0009268767
0001d0 2e 6a 30 3d e1 75 81 bc 68 f6 df 3d 6f ba 8b 3d
       0.04307001 -0.01580328 0.1093567 0.06822669
0001e0 5e 3a d2 bd 3f 32 f1 3d d5 3a df bd f5 f7 81 bd
       -0.10265039 0.11777162 -0.10899893 -0.06346122
0001f0 b8 bc 8a bd 15 8a e6 3c 2e e0 2b bd 46 53 b3 3d
       -0.067742765 0.028142015 -0.04196184 0.087561175
000200 76 98 69 bd 85 2e 0c bd db 24 88 bd 1f 50 be 3c
       -0.057030164 -0.034224052 -0.066476546 0.023231564
000210 2c 63 b1 bd 19 7d bf 3d 22 45 9e 3d 31 47 a0 bd
       -0.08661494 0.09350032 0.0772803 -0.07826079
000220 6d d3 72 3d 36 07 df bd 7e 26 0d 3d 08 6a 32 3d
       0.059283663 -0.10890047 0.034460537 0.04355815
000230 1d cd ef 3d b1 7f e5 bd 5e 62 87 bd a2 cb 61 3d
       0.11709044 -0.11205996 -0.06610559 0.05512584
000240 b6 71 94 bd 15 88 82 3d d1 14 bc bd bf f1 a4 bd
       -0.07248251 0.06373612 -0.09183658 -0.08053922
000250 49 dd d4 bd ba 4a 3d 3d 29 78 87 bd 07 a9 3f 3d
       -0.10393769 0.046213843 -0.066147156 0.046792056
000260 82 a7 a5 3d 78 73 a0 bd bf d0 44 3a 3f 7d 10 3d
       0.0808859 -0.07834524 0.0007507912 0.035275694
000270 1d 82 29 bd 44 af c8 bd ef 0c 6d bc 57 93 a6 bc
       -0.04138385 -0.09799054 -0.014468416 -0.020333929
000280 4f e0 09 3e 45 c1 fd bc a0 39 fc 3c 9f f8 34 3d
       0.13464473 -0.030975947 0.030789196 0.044182416
000290 a5 0a bd bd a0 b0 df 3c e0 7e b7 3b 15 58 d5 bd
       -0.09230546 0.027305901 0.0055998415 -0.10417191
0002a0 8c 7d 50 bd a4 40 f2 3c 20 9f 0a 3d 45 c7 b3 bd
       -0.05090098 0.029571839 0.03384316 -0.08778242
0002b0 7c c9 2f 3d 64 b5 f3 ba f5 13 24 3d d9 b6 97 bd
       0.04291676 -0.0018593487 0.040058095 -0.07407922
0002c0 0e 8a 96 bd cc 77 e5 3d 19 ec 01 3e 5e 13 23 bd
       -0.073505506 0.1120449 0.1268772 -0.039813392
0002d0 a6 e4 16 bc 6c 70 dd 3c 32 8a 88 bd cb f7 ad bd
       -0.0092097875 0.027031146 -0.06666984 -0.084945284
0002e0 64 37 cc bd 0f 9d 81 3d b5 a3 31 3d 97 0c 4d bc
       -0.099715024 0.06328785 0.043369014 -0.012515209
0002f0 b5 98 2f bd df 73 d8 bd 55 cb bd 3d cb 2e 47 bd
       -0.042870242 -0.10568976 0.09267298 -0.04862861
000300 8a be b1 bd 26 bf 88 3d d3 ac 0a bd d5 5c 94 bd
       -0.086789206 0.06677084 -0.033856224 -0.07244269
000310 c3 14 9c bd 17 02 c2 bc 1c 0b db 3d 53 78 b2 3d
       -0.076211475 -0.023682637 0.10695478 0.08714356
000320 6f 30 48 bc b6 fe 24 bb da fa 3b bd a4 f1 e3 3a
       -0.012218579 -0.0025176234 -0.045893528 0.001739074
000330 e3 13 8b 3d 5d 01 37 3d 83 da b1 3c c2 98 47 3d
       0.067909025 0.044679035 0.02171064 0.048729666
000340 46 c1 fd 3d 3b d7 91 3d 2c 7d a3 3c 11 4c 93 3d
       0.123903796 0.0712113 0.019957148 0.07192243
000350 8e 2a 46 3d 56 68 05 3d c6 76 b3 bc f3 bb 51 bd
       0.048380427 0.032570206 -0.021907222 -0.051204633
000360 ec e2 07 bd 0b f7 84 bd 0d 30 c6 3d bb 84 ec bc
       -0.033175394 -0.06492432 0.09677134 -0.028871885
000370 55 f2 8d 3c cd 05 a9 3d dc 5f 02 3e 37 a1 95 3d
       0.017327467 0.082530595 0.1273188 0.0730614
000380 a4 ff 2b bc 66 2a 65 3d bc 22 ae 3d 67 65 1e 3e
       -0.010497961 0.055948637 0.08502719 0.1546837
000390 b2 33 88 bd 27 80 ba 3d f5 21 6e bd ac 22 8a bd
       -0.06650485 0.09106474 -0.058137853 -0.067448944
0003a0 3e f6 ea bd c2 3e fa 3b 6c ec 9a 3b c2 6d 90 ba
       -0.11472748 0.007636876 0.0047278907 -0.0011019039
0003b0 20 f7 fe bb 8d ea 96 3c 82 3e bd 3d fe 75 5a bd
       -0.0077809244 0.01842239 0.09240438 -0.053335182
0003c0 2e e1 1d 3e 8b 9b 08 bd 00 91 6d 3d 47 d0 be 3d
       0.1541793 -0.033351462 0.05799961 0.093170695
0003d0 4d bd c9 bc fe 1f 8f 3d 78 0d 4b 3d 61 de 7b 3c
       -0.024626398 0.06988524 0.04957339 0.0153728435
0003e0 94 cd d5 bb 72 3b 4b bc 89 91 6c bd ff 05 25 bd
       -0.006524751 -0.01240431 -0.05775598 -0.04028892
0003f0 80 9f 43 ba 49 b7 f8 3d 4a 89 63 bd 1d 47 6f 3d
       -0.0007462427 0.12144334 -0.05555085 0.05841743

net.3.bias f4 [16]
000000 06 c5 da bc 31 45 dc 3d 06 6e ce 3d a6 82 2b 3d
       -0.026705276 0.10755385 0.10079579 0.041872643
000010 04 b6 96 bc 08 8e 40 3d ea ab 1d bd 5d 00 7a 3d
       -0.018397339 0.04701045 -0.03849403 0.061035503
000020 b4 41 f4 bd 38 12 2e bc ec 01 31 bd a3 55 f7 b9
       -0.119265944 -0.010624461 -0.043214723 -0.00047175316
000030 7a 0b ba 3d d0 61 ce 3b ff 8b 47 bd de 17 28 3d
       0.0908422 0.0062982813 -0.048717495 0.041038387

net.5.weight f4 [2, 16]
000000 16 1a ab 3d 76 39 a6 bd be f0 2e bd b0 0c 28 3e
       0.08354585 -0.081164286 -0.04271006 0.1641109
000010 b8 26 a2 3d 26 c9 9f bd db cf 80 3e e5 c8 dd bd
       0.07917541 -0.07802038 0.2515858 -0.10829333
000020 2c 88 c1 bd fc dc 44 3e 78 ac 3f 3e 2f b2 5c be
       -0.09449801 0.19224924 0.18718135 -0.21552347
000030 a5 aa 8b 3e 88 e0 72 3d 3c cc 95 3c fb 60 85 3e
       0.2727863 0.05929616 0.018285863 0.26050553
000040 3d f6 2b 3e 96 89 6d 3e b3 fe 13 be 17 55 45 be
       0.16793151 0.23197016 -0.14452629 -0.1927074
000050 34 52 a2 bd 67 6e 5e be e9 b2 f3 3c aa 2b 67 3e
       -0.07925835 -0.21721803 0.029748397 0.2257525
000060 44 d9 16 3e f0 04 cc bc 84 9e 42 3e dd eb 67 3e
       0.14731318 -0.024904698 0.19005781 0.22648568
000070 55 4a 18 be 14 fb 51 3e 3e 0e 1d 3e 57 8b e0 3d
       -0.14872105 0.20505935 0.15337464 0.10964077

net.5.bias f4 [2]
000000 86 59 f5 bd f5 fb 1a be
       -0.11979966 -0.15135176
