cnn_model.pth (torch, 98537 bytes, 8 tensors)

net.0.weight f4 [16, 3, 3, 3]
-0.0493583 -0.023816988 0.024939394 0.16865239 0.061712697 -0.10848139 0.10401448 -0.139091
-0.11467104 0.23003253 0.048324708 0.02288413 -0.12456107 -0.053007934 0.01965374 -0.010096277
0.046245918 -0.02777943 -0.09762801 -0.03241302 0.07612261 -0.045068163 -0.13521454 0.119411
0.09716849 -0.14873469 0.010442868 -0.08959974 0.09921737 0.07735722 0.16067283 0.0021948516
-0.09346654 0.029616103 -0.15048614 0.0843928 -0.14561015 -0.13370872 -0.11373116 0.04482782
0.06134589 0.08724116 -0.164803 0.18100585 -0.084966525 -0.025336847 0.025124818 0.1028838
0.030729637 -0.16885212 -0.08994502 -0.05857037 -0.09162406 -0.18297192 0.2059541 -0.0056982953
0.09394681 -0.17037484 0.060883198 0.14694786 0.16734967 0.16930641 -0.13594604 0.09658152
0.07972915 -0.17448534 -0.005258339 -0.16794853 -0.14739367 -0.049073044 0.051426962 0.18590453
0.15065907 -0.03881444 0.20496859 0.11379425 0.04631755 -0.03390871 0.16446617 0.010269642
0.1556043 -0.04377729 -0.123774834 0.13537854 0.09150372 0.06843531 0.084772974 0.15508834
-0.07094787 -0.119200386 0.16160643 -0.04365593 -0.015719991 0.10690817 -0.044881385 -0.05885734
-0.10019067 -0.11333047 -0.17193072 0.21620612 0.07428739 -0.032514777 0.0009501367 0.15225935
-0.047477677 -0.012331644 0.09039118 0.027347751 0.12564059 -0.073249035 -0.12947792 -0.016968876
-0.14510868 0.0013743212 -0.03847888 -0.047465436 -0.10842144 0.10549841 -0.07003549 -0.1655238
0.12236526 0.19286454 -0.16893193 -0.01059964 -0.14101438 0.10354514 0.07593884 -0.032361038
-0.17159873 0.14074282 0.029127246 -0.017208388 0.14414555 -0.027411874 0.10091143 -0.078214996
0.058443878 0.20709124 0.16597532 -0.12001483 0.011354252 0.0028850976 0.032263797 0.19770756
0.093700156 0.0998781 0.036339607 0.12528437 0.10975254 0.06623195 -0.020309864 -0.03294056
0.030740237 0.0702769 0.20698024 -0.16623916 0.055787377 0.15887314 0.02971554 0.13292976
-0.08392863 -0.059486195 0.11079569 -0.07400091 0.22280982 0.14082874 -0.06559102 -0.0888679
0.18827955 -0.115129255 -0.09948168 -0.16308472 0.005655909 -0.08581469 -0.046804104 -0.16745704
0.118077315 0.047996122 0.047166366 -0.1645518 0.18663417 0.110432036 -0.09216854 0.08499201
0.20320277 -0.064673536 0.087890886 0.091310486 0.020606667 0.09758025 0.0855158 -0.094971605
-0.15222435 -0.013744428 0.197413 -0.14604588 -0.08878432 0.1918747 -0.13105798 0.05933131
0.20552403 0.0070752585 -0.118165515 0.12981473 0.033330746 0.07067607 0.113972954 -0.16034319
-0.04098471 -0.078305446 -0.09506972 -0.14418425 -0.01183239 0.15267786 -0.05729573 -0.0029159063
0.083496764 -0.13987607 0.18197902 0.17375909 -0.12420553 -0.1177324 -0.009884328 -0.18878353
0.12298913 0.08497448 -0.12836844 0.07824047 -0.036958635 -0.062350944 -0.18166056 0.044823557
0.06240605 -0.13038416 0.08450712 -0.017530322 -0.16855222 -0.08798599 -0.121259935 -0.13731512
-0.13175102 0.15950145 0.14062224 -0.08537045 -0.16781262 -0.031304684 -0.12447895 -0.16287945
-0.06174569 -0.061797798 -0.031804793 -0.11276363 0.20242463 0.12983881 0.10079554 0.17692198
00000000: ee2b 4abd d81b c3bc b34d cc3c 36b3 2c3e
00000010: 74c6 7c3d 7e2b debd 8b05 d53d df6d 0ebe
00000020: a6d8 eabd a68d 6b3e 21f0 453d 8077 bb3c
00000030: e019 ffbd d91e 59bd e100 a13c db6a 25bc
00000040: 5c6c 3d3d b091 e3bc 32f1 c7bd 84c3 04bd
00000050: 2ce6 9b3d 6599 38bd ae75 0abe c18d f43d
00000060: 4600 c73d e84d 18be 9018 2b3c 1280 b7bd
00000070: 7a32 cb3d 766d 9e3d 6b87 243e 80d7 0f3b
00000080: 636b bfbd 789d f23c 0a19 1abe 22d6 ac3d
00000090: d41a 15be f0ea 08be e2eb e8bd 609d 373d
000000a0: d445 7b3d 7eab b23d 1ec2 28be 9959 393e
000000b0: ee02 aebd 388f cfbc 90d2 cd3c beb4 d23d
000000c0: b8bc fb3c 92e7 2cbe 1835 b8bd 7ce7 6fbd
000000d0: 65a5 bbbd fe5c 3bbe a2e5 523e c4b8 babb
000000e0: 2f67 c03d be76 2ebe a960 793d 8079 163e
000000f0: b65d 2b3e a95e 2d3e 7035 0bbe 88cc c53d
00000100: 0949 a33d 49ac 32be 254e acbb b3fa 2bbe
00000110: 5eee 16be d100 49bd 14a5 523d c25d 3e3e
00000120: 5f46 1a3e e4fb 1ebd 49e3 513e f60c e93d
00000130: 79b7 3d3d dce3 0abd d269 283e 0042 283c
00000140: bc56 1f3e d14f 33bd a97d fdbd aca0 0a3e
00000150: 4d66 bb3d d027 8c3d 749d ad3d 7acf 1e3e
00000160: 1e4d 91bd 551f f4bd 287c 253e 8fd0 32bd
00000170: 36c7 80bc acf2 da3d 8bd5 37bd 6514 71bd
00000180: c430 cdbd ce19 e8bd 9b0e 30be 2365 5d3e
00000190: fd23 983d 372e 05bd 9812 793a e0e9 1b3e
000001a0: f477 42bd aa0a 4abc 031f b93d 6408 e03c
000001b0: eda7 003e 9703 96bd dc95 04be 5002 8bbc
000001c0: 5f97 14be 9122 b43a 089c 1dbd 1e6b 42bd
000001d0: 0f0c debd 8d0f d83d c46e 8fbd 127f 29be
000001e0: a39a fa3d 487e 453e 7efc 2cbe 1daa 2dbc
000001f0: 1366 10be 790f d43d d385 9b3d 028d 04bd
00000200: 94b7 2fbe e31e 103e 439c ee3c 9bf8 8cbc
00000210: e49a 133e de8e e0bc a7aa ce3d 2f2f a0bd
00000220: d962 6f3d ba0f 543e 6ff5 293e 56ca f5bd
00000230: 2f07 3a3c e813 3d3b 0b27 043d da73 4a3e
00000240: dee5 bf3d e48c cc3d d7d8 143d 8c4a 003e
00000250: f1c5 e03d 9ea4 873d df60 a6bc aeec 06bd
00000260: f3d2 fb3c 56ed 8f3d a1f2 533e 993a 2abe
00000270: 4e81 643d a4af 223e 016e f33c bd1e 083e
00000280: c6e2 abbd cca7 73bd dae8 e23d ca8d 97bd
00000290: 4228 643e 6935 103e 9654 86bd 6000 b6bd
000002a0: 5bcc 403e e3c8 ebbd 0dbd cbbd aeff 26be
000002b0: 3455 b93b 9dbf afbd a9b5 3fbd dc79 2bbe
000002c0: 85d2 f13d 9597 443d 8531 413d 4480 28be
000002d0: 071d 3f3e 312a e23d dcc2 bcbd 4a10 ae3d
000002e0: 6314 503e 8f73 84bd 2300 b43d fe00 bb3d
000002f0: 50cf a83c 27d8 c73d e822 af3d 7980 c2bd
00000300: b3e0 1bbe 4f30 61bc a226 4a3e 0d8d 15be
00000310: 8ed4 b5bd cd7a 443e 1034 06be 6305 733d
00000320: e474 523e 92d7 e73b c300 f2bd 27ee 043e
00000330: d285 083d 9ebe 903d a76a e93d 0131 24be
00000340: 95df 27bd 9b5e a0bd eab3 c2bd 09a5 13be
00000350: a4dc 41bc 9657 1c3e edae 6abd ca18 3fbb
00000360: 5a00 ab3d ac3b 0fbe b558 3a3e e7ed 313e
00000370: 785f febd af1d f1bd e0f1 21bc 7850 41be
00000380: bae1 fb3d 1a07 ae3d 0473 03be 8a3c a03d
00000390: f061 17bd b463 7fbd 3a05 3abe e898 373d
000003a0: 7c9d 7f3d 6d83 05be 1212 ad3d c09b 8fbc
000003b0: f498 2cbe 0032 b4bd 2157 f8bd 569c 0cbe
000003c0: bde9 06be 5954 233e 47ff 0f3e b4d6 aebd
000003d0: 12d7 2bbe 5739 00bd d2ee febd dfc9 26be
000003e0: 0ce9 7cbd b01f 7dbd be45 02bd 9ef0 e6bd
000003f0: 6748 4f3e 77f4 043e e46d ce3d 092b 353e

net.0.bias f4 [16]
0.23159936 -0.13097611 -0.052215073 -0.17755826 -0.111749224 -0.17184313 -0.04560525 0.029830728
-0.09125844 0.057533357 -0.04578099 0.1181627 -0.13452527 -0.09992407 -0.19354732 -0.13216794
00000000: 6228 6d3e 9a1e 06be 79df 55bd d5d1 35be
00000010: c7dc e4bd a5f7 2fbe 92cc 3abd 925f f43c
00000020: b4e5 babd 19a8 6b3d d984 3bbd 49ff f13d
00000030: fec0 09be fea4 ccbd 4531 46be 0857 07be

net.2.weight f4 [32, 16, 3, 3]
-0.012722041 0.025372013 0.039959643 -0.034700356 0.017481722 -0.092235066 -0.12590022 -0.010494318
-0.0882973 -0.0064517185 -0.039609414 -0.049025487 -0.024144214 -0.044101022 -0.01790309 0.06426857
0.015177511 -0.07505491 -0.064339764 -0.03959007 -0.018531125 0.06732315 0.09861035 0.017468568
0.07439374 0.0659741 -0.037884038 0.033099525 -0.014732677 0.0056502875 -0.05834374 -0.046450153
0.10006053 0.008210541 0.005059088 0.039888863 0.10253271 0.085177116 0.07952181 -0.006705741
-0.03748518 -0.049082343 -0.011801146 0.074095905 -0.019456336 0.09618268 0.030969687 0.067733206
-0.06442316 -0.05765862 0.07558929 0.025136309 0.08877829 -0.06300148 -0.050739866 0.08775735
-0.05584444 -0.0027154023 0.030958751 -0.0436455 0.055926472 0.06340011 0.015555146 -0.11229327
0.07199548 -0.06376359 0.008641997 -0.047470648 0.022423098 0.0706199 -0.034401074 0.060220204
0.061218478 -0.056526184 -0.07642057 -0.00069606304 0.04417125 -0.07191994 0.053546317 -0.07287422
-0.067659006 -0.038209647 -0.017056296 0.058810413 -0.024772365 -0.020166904 0.0397687 0.042585507
-0.05055513 -0.035396345 0.027592223 0.072273105 0.05888374 0.06719465 0.010278177 -0.032298274
-0.006189866 0.04536161 -0.0637383 0.03064452 0.05631439 -0.041062642 -0.05728919 0.01820422
-0.021051582 0.0044525685 -0.012932556 0.08520405 0.07232316 -0.028723702 0.013639891 -0.0294121
0.10263338 0.036628254 -0.06667262 0.11639893 -0.0145001095 -0.03942943 0.0075701545 -0.042162422
0.06328936 -0.020451406 0.005643068 0.06673081 -0.01678352 0.0697604 0.07160322 -0.04207894
0.07195158 0.08951118 0.08419767 0.013878674 0.095373996 0.111354254 -0.06681034 0.014937387
0.10606196 0.044887654 0.044896364 0.04472505 0.049420822 0.015596101 -0.015279623 0.021926222
0.051700376 0.02058854 0.037479497 -0.035909437 -0.07810982 0.075619616 -0.069905415 -0.080229364
0.08143764 -0.06947529 -0.027289204 -0.043917984 0.08259518 0.039413452 0.03321559 -0.04749052
0.017146766 0.039055347 0.02504488 0.074048616 -0.06749138 -0.013558358 0.0017098784 0.033260316
-0.07541387 -0.0019437894 -0.0379548 0.05858723 0.062234916 -0.0020913258 0.050442047 -0.03915807
-0.01651328 -0.0047254637 -0.024213295 0.001412116 0.06800098 -0.05321751 0.052755512 -0.06399482
-0.04696427 0.072106756 -0.051025223 0.032071136 0.059482194 0.05148498 0.03104011 -0.03788817
-0.02677244 -0.07293024 -0.07471468 -0.06291643 0.0636859 -0.06807996 -0.014933668 -0.08068125
0.02314476 0.015312374 0.03702017 -0.04756313 -0.0127756 0.023932286 -0.048828565 0.018483378
-0.014911018 -0.06814887 0.014691681 -0.02727158 -0.07908599 -0.047851633 0.032948524 0.05280877
0.049825825 -0.08259967 0.028219849 0.021856748 0.0622826 0.03636712 0.039618336 0.005515076
-0.05155801 0.0041089132 -0.045473963 -0.0019750968 -0.05133046 0.05252529 -0.013608195 -0.034038275
0.05953347 -0.015728153 -0.080875814 -0.06124411 0.057039864 -0.050089233 -0.019129455 -0.035204303
-0.035015147 0.00922323 -0.030863278 -0.08119064 -0.026705585 0.025264509 0.00039877743 -0.077850536
0.0067334548 -0.00074022263 0.01537285 0.023174994 0.030517556 -0.027175318 0.05351942 -0.021177493
00000000: 1c70 50bc f8d8 cf3c b9ac 233d f621 0ebd
00000010: d435 8f3c bde5 bcbd fdeb 00be 5cf0 2bbc
00000020: 37d5 b4bd f068 d3bb 7b3d 22bd f3ce 48bd
00000030: 16ca c5bc 46a3 34bd 80a9 92bc 3d9f 833d
00000040: 18ab 783c 63b6 99bd 91c4 83bd 3229 22bd
00000050: 96ce 97bc b8e0 893d 39f4 c93d 3e1a 8f3c
00000060: bf5b 983d 6e1d 873d 4b2c 1bbd 5e93 073d
00000070: 5361 71bc 0c26 b93b d8f9 6ebd 8442 3ebd
00000080: 89ec cc3d 8185 063c b5c6 a53b 8162 233d
00000090: abfc d13d 5771 ae3d 55dc a23d d5bb dbbb
000000a0: 0f8a 19bd 910a 49bd 9859 41bc 98bf 973d
000000b0: e562 9fbc 6dfb c43d 24b4 fd3c b5b7 8a3d
000000c0: 4af0 83bd 722b 6cbd 8fce 9a3d a9ea cd3c
000000d0: 64d1 b53d ec06 81bd 9bd4 4fbd 20ba b33d
000000e0: 24bd 64bd e4f4 31bb 359d fd3c a0c5 32bd
000000f0: 2813 653d ebd7 813d 03db 7e3c 04fa e5bd
00000100: 5e72 933d 7c96 82bd 2a97 0d3c 9570 42bd
00000110: a5b0 b73c 2ba1 903d 24e8 0cbd 76a9 763d
00000120: 3ac0 7a3d 0088 67bd 6382 9cbd 0078 36ba
00000130: eaec 343d c34a 93bd 6253 5b3d 143f 95bd
00000140: ce90 8abd b881 1cbd a5b9 8bbc 30e3 703d
00000150: 6aef cabc 1035 a5bc 81e4 223d 246e 2e3d
00000160: e512 4fbd c2fb 10bd 1609 e23c ec03 943d
00000170: 1430 713d 599d 893d cd65 283c 324b 04bd
00000180: 5cd4 cabb 18cd 393d 3a89 82bd 370a fb3c
00000190: eba9 663d 4d31 28bd 12a8 6abd 0421 953c
000001a0: 5e74 acbc dae6 913b 12e3 53bc 767f ae3d
000001b0: 2a1e 943d f84d ebbc d979 5f3c a5f1 f0bc
000001c0: 7331 d23d 8207 163d a88b 88bd 9062 ee3d
000001d0: de91 6dbc c180 21bd 0f0f f83b 81b2 2cbd
000001e0: da9d 813d b589 a7bc 7ce9 b83b 2aaa 883d
000001f0: 987d 89bc 8ade 8e3d b6a4 923d f75a 2cbd
00000200: 5a5b 933d a351 b73d d46f ac3d 6163 633c
00000210: 7153 c33d b30d e43d dcd3 88bd f1bb 743c
00000220: 0337 d93d 1edc 373d 40e5 373d 9d31 373d
00000230: 7d6d 4a3d ca86 7f3c 6257 7abc 9f9e b33c
00000240: c6c3 533d 4ca9 a83c 1a84 193d c615 13bd
00000250: 0bf8 9fbd 75de 9a3d 922a 8fbd 4b4f a4bd
00000260: c7c8 a63d 1049 8ebd 9c8d dfbc 58e3 33bd
00000270: a927 a93d 0070 213d 120d 083d 6b85 42bd
00000280: 6077 8c3c 80f8 1f3d ec2a cd3c cda6 973d
00000290: ec38 8abd e023 5ebc 001e e03a f83b 083d
000002a0: 9672 9abd c0c6 feba 7e76 1bbd 2af9 6f3d
000002b0: 0aea 7e3d a00e 09bb 529c 4e3d 3664 20bd
000002c0: dc46 87bc 10d8 9abb f65a c6bc c016 b93a
000002d0: 1944 8b3d 9bfa 59bd 2a16 583d b70f 83bd
000002e0: 9b5d 40bd b5ac 933d d3ff 50bd 065d 033d
000002f0: 9aa3 733d eae1 523d d447 fe3c a030 1bbd
00000300: e051 dbbc 735c 95bd 0304 99bd 54da 80bd
00000310: c16d 823d 826d 8bbd 58ac 74bc 363c a5bd
00000320: 149a bd3c c0e0 7a3c 76a2 173d 8ed1 42bd
00000330: c050 51bc a40d c43c 7600 48bd 746a 973c
00000340: 584d 74bc a291 8bbd 60b5 703c a668 dfbc
00000350: d6f7 a1bd 1300 44bd 08f5 063d 024e 583d
00000360: 2a16 4c3d 042a a9bd 502d e73c ec0c b33c
00000370: 0a1c 7f3d b0f5 143d d646 223d d0b7 b43b
00000380: 7e2e 53bd 10a4 863b e842 3abd a070 01bb
00000390: e33f 52bd c224 573d e8f4 5ebc b86b 0bbd
000003a0: 5ed9 733d 54d8 80bc 38a2 a5bd 1bdb 7abd
000003b0: a2a2 693d 5e2a 4dbd 60b5 9cbc 6332 10bd
000003c0: 0b6c 0fbd 081d 173c fcd4 fcbc 4747 a6bd
000003d0: acc5 dabc 84f7 ce3c 0013 d139 1a70 9fbd
000003e0: 50a4 dc3b 800b 42ba 68de 7b3c 7cd9 bd3c
000003f0: f4ff f93c c69e debc 2e37 5b3d 6c7c adbc

net.2.bias f4 [32]
-0.0961255 -0.039343677 0.059964865 0.01410852 0.033746548 -0.062187843 0.038046088 -0.017122839
-0.051817413 -0.04738188 -0.08312073 0.101429045 0.024920251 -0.024102334 -0.045691755 -0.043475006
0.112548694 -0.0521015 -0.02654405 -0.05564942 0.090014376 0.03869568 0.002247041 0.0841487
-0.06370311 0.048291385 -0.05771979 -0.022617854 0.006837455 0.017576262 0.05419471 -0.068583824
00000000: 72dd c4bd d626 21bd b89d 753d 6c27 673c
00000010: d239 0a3d aeb8 7ebd 37d6 1b3d 3245 8cbc
00000020: 7f3e 54bd 8113 42bd 343b aabd 08ba cf3d
00000030: 8e25 cc3c 4272 c5bc 4727 3bbd d912 32bd
00000040: ee7f e63d 6268 55bd e872 d9bc a5f0 63bd
00000050: 7559 b83d 5d7f 1e3d 1843 133b 2756 ac3d
00000060: c776 82bd 30cd 453d 966b 6cbd 1449 b9bc
00000070: bb0c e03b 18fc 8f3c 46fb 5d3d ad75 8cbd

net.5.weight f4 [64, 288]
0.05834769 0.04260199 0.034521487 0.04483553 -0.016790582 0.08306425 -0.042445395 -0.049279585
-0.033777703 0.046344783 0.013655473 -0.043673906 0.015545819 -0.035546996 0.02607615 -0.038045947
-0.037176877 0.049477573 0.054184273 0.008659785 0.00985968 -0.039428573 0.057545338 -0.00032046268
0.026003825 -0.027721133 0.033855375 -0.007347091 0.0140077425 0.025129778 0.023706134 0.002751651
0.056003932 0.065326616 0.035257246 0.08493049 0.056559917 -0.014538248 0.042011403 0.0033578943
-0.040882684 0.025577707 0.033625927 0.024421096 -0.062874794 0.040789116 0.08313757 -0.006992578
0.09210556 0.094087206 0.03789699 0.07580207 0.034893073 0.09180257 0.016596692 -0.0030738167
0.06573752 0.0009860029 -0.021194048 0.014493761 0.040073745 0.010424991 0.05064086 0.0044625513
0.04613372 0.06366302 0.035264704 0.037139222 -0.021310123 0.010867782 -0.03751866 -0.07871901
0.062322423 0.041494362 0.014633367 0.05558262 0.09349326 0.017397067 0.089506716 0.005386553
0.04981885 0.052555438 -0.01965358 -0.00445 0.09255081 0.0073105237 0.039610617 0.08725388
0.06553088 0.04742994 0.0531268 -0.0125462245 0.09876065 0.023728723 0.06716578 -0.047081
0.016354837 0.039964113 -0.026760824 -0.11245092 -0.09048045 0.003978028 -0.090531364 -0.0004988547
0.03410069 -0.03071088 -0.012177885 -0.040065717 -0.0568772 0.06878665 0.06266645 0.047318764
-0.03877531 0.024084551 -0.032967433 0.061054494 0.07223346 0.028678892 0.008874655 0.04969003
0.07004739 0.012381219 -0.025348319 0.09122413 0.01651777 -0.0034191958 0.020262714 0.06508264
-0.010019872 0.051334735 0.06836112 0.07181146 0.004052583 -0.024201857 0.06233969 -0.018684175
-0.024491837 0.028510535 -0.014742166 -0.029836828 -0.043476347 0.052911114 0.004897047 0.0015957323
-0.009932706 -0.07870632 -0.013726991 0.0023905404 -0.07397544 -0.013070313 -0.014096781 -0.05768273
-0.098963335 0.031951524 0.01581178 0.044077106 0.08383187 0.069328144 0.080663584 0.051052406
0.1009748 0.031235218 0.072236285 0.010449747 0.034647416 0.04553417 0.08238015 0.07576783
0.028680427 0.037129495 0.0089901835 -0.028401058 -0.009567612 0.03304538 -0.01978886 0.025867362
0.077998385 0.021184707 -0.009395142 0.06340875 -0.06815376 0.023132885 -0.073457636 0.03745264
-0.051807307 -0.034469884 0.0041509974 0.02586596 0.0003438404 0.039500635 0.08549481 -0.019272191
0.060543 0.009454754 -0.08939983 -0.062663086 0.037991375 0.019670399 -0.026577111 0.002464404
-0.082209274 0.0653879 0.044676583 -0.0036681222 0.076459885 0.011905538 0.044297267 0.0573111
0.035720322 -0.08763513 0.050466057 0.025836976 -0.0034529269 -0.013563868 -0.0064205895 -0.014100314
0.016380193 0.052259505 0.026905186 0.022639422 0.06208756 0.012584491 0.064254984 0.0882898
0.03513923 -0.01648865 -0.019686116 0.0029600004 0.010836544 0.040801574 0.042028937 -0.006933494
-0.005402091 -0.021072691 -0.010515048 0.041868266 -0.02166332 0.047907643 -0.022490036 -0.012149669
0.03729788 0.057778917 0.032233745 -0.061414577 0.00455631 0.055027332 0.04466662 0.040794123
-0.054655682 0.005081754 -0.040213663 0.006973847 0.021079896 -0.008915866 0.029362638 0.008418881
00000000: fdfd 6e3d 6d7f 2e3d 6766 0d3d 76a5 373d
00000010: 678c 89bc 971d aa3d 39db 2dbd 64d9 49bd
00000020: 7d5a 0abd 07d4 3d3d 34bb 5f3c 69e3 32bd
00000030: e4b3 7e3c ba99 11bd a69d d53c 11d6 1bbd
00000040: c846 18bd ffa8 4a3d 54f0 5d3d c5e1 0d3c
00000050: 7f8a 213c db7f 21bd a9b4 6b3d c603 a8b9
00000060: f905 d53c 6e17 e3bc efab 0a3d debf f0bb
00000070: bb80 653c f7dc cd3c 5e33 c23c 0b55 343b
00000080: 6164 653d f6c9 853d e769 103d 09f0 ad3d
00000090: 5fab 673d d531 6ebc 2614 2c3d 1e10 5c3b
000000a0: 9a74 27bd 5788 d13c 57bb 093d c00e c83c
000000b0: 80c4 80bd 7d12 273d 0844 aa3d ff21 e5bb
000000c0: d7a1 bc3d cbb0 c03d e039 1b3d 1e3e 9b3d
000000d0: 0aec 0e3d fc02 bc3d c9f5 873c 1672 49bb
000000e0: 65a1 863d c43c 813a 249f adbc 3d77 6d3c
000000f0: 5e24 243d 95cd 2a3c ca6c 4f3d 983a 923b
00000100: b6f6 3c3d c261 823d b971 103d 4c1f 183d
00000110: 9192 aebc c80e 323c 2bad 19bd 6f37 a1bd
00000120: cc45 7f3d fef5 293d cac0 6f3c 9aaa 633d
00000130: 6579 bf3d 4b84 8e3c 4c4f b73d ae81 b03b
00000140: da0e 4c3d 5f44 573d 8b00 a1bc 4ed1 91bb
00000150: 478b bd3d 1e8d ef3b be3e 223d 2ab2 b23d
00000160: 0e35 863d e645 423d 7d9b 593d ae8e 4dbc
00000170: 0643 ca3d bd62 c23c 368e 893d 02d8 40bd
00000180: 94fa 853c 69b1 233d 8439 dbbc ab4c e6bd
00000190: d04d b9bd 1e5a 823b 8268 b9bd 92c5 02ba
000001a0: 2aad 0b3d 6295 fbbc c085 47bc f31b 24bd
000001b0: 11f8 68bd 04e0 8c3d 4557 803d 52d1 413d
000001c0: dcd2 1ebd f74c c53c dc08 07bd 4714 7a3d
000001d0: 23ef 933d ffef ea3c 0067 113c c687 4b3d
000001e0: 0275 8f3d 99da 4a3c 47a7 cfbc b7d3 ba3d
000001f0: 4650 873c 9614 60bb fefd a53c 0c4a 853d
00000200: 642a 24bc 5f44 523d ea00 8c3d e311 933d
00000210: 88cb 843b f942 c6bc e757 7f3d 8e0f 99bc
00000220: 1ba3 c8bc ed8e e93c 2089 71bc 5d6c f4bc
00000230: 4114 32bd 53b9 583d 6877 a03b e427 d13a
00000240: cabc 22bc c730 a1bd 2ce7 60bc 9daa 1c3b
00000250: 6f80 97bd de24 56bc 2ff6 66bc ba44 6cbd
00000260: 4aad cabd 9adf 023d b587 813c 328a 343d
00000270: 0bb0 ab3d eafb 8d3d f332 a53d 541c 513d
00000280: e0cb ce3d 00e1 ff3c 9ef0 933d 6a35 2b3c
00000290: 73ea 0d3d 0a82 3a3d edb6 a83d 2a2c 9b3d
000002a0: 37f3 ea3c 1915 183d 904b 133c 56a9 e8bc
000002b0: 79c1 1cbc 985a 073d 3f1c a2bc cae7 d33c
000002c0: 9ebd 9f3d 8d8b ad3c 15ee 19bc 72dc 813d
000002d0: 3394 8bbd 2d81 bd3c f570 96bd f067 193d
000002e0: e633 54bd 4b30 0dbd 1705 883b dae4 d33c
000002f0: 7a45 b439 6bcb 213d e717 af3d b7e0 9dbc
00000300: f0fb 773d 1de8 1a3c 4217 b7bd 8155 80bd
00000310: d89c 1b3d d123 a13c 3eb8 d9bc d781 213b
00000320: 565d a8bd 17ea 853d cbfe 363d e164 70bb
00000330: 0097 9c3d 720f 433c 0d71 353d 0bbf 6a3d
00000340: 794f 123d 0c7a b3bd 7fb5 4e3d 11a8 d33c
00000350: 804a 62bb fc3a 5ebc cf63 d2bb 0105 67bc
00000360: c12f 863c 100e 563d 4468 dc3c 4f76 b93c
00000370: 864f 7e3d 2e2f 4e3c 1e98 833d 48d1 b43d
00000380: 27ee 0f3d 3513 87bc c744 a1bc 91fc 413b
00000390: c38b 313c 8d1f 273d 8926 2c3d 5d32 e3bb
000003a0: 0604 b1bb a3a0 acbc 4f47 2cbc 0f7e 2b3d
000003b0: 4677 b1bc ce3a 443d 063d b8bc 680f 47bc
000003c0: a9c5 183d 96a9 6c3d 8807 043d da8d 7bbd
000003d0: 194d 953b 5764 613d 59f4 363d bd17 273d
000003e0: a3de 5fbd d884 a63b 15b7 24bd de84 e43b
000003f0: bfaf ac3c da13 12bc ea89 f03c 59ef 093c

net.5.bias f4 [64]
0.041760214 -0.020518353 -0.057779893 -0.053828772 -0.0058994964 -0.03770106 0.04641937 0.018267948
-0.005416125 -0.02565027 -0.043073524 -0.051595934 -0.035573937 -0.02426964 0.06789641 -0.03643777
0.01991456 0.034820832 0.027279975 -0.0013894094 0.03931502 0.08224844 0.023175437 0.013709624
-0.029591754 -0.00437533 -0.016063662 0.010331823 0.035959914 0.023416994 0.028098878 -0.05689941
0.048848175 0.06964877 -0.054898433 -0.049461167 -0.017103069 -0.007535485 0.012950816 0.049184058
-0.02020933 -0.05151239 -0.006334466 0.006715176 -0.038846552 -0.056457452 -0.045061156 0.009083421
-0.004627555 0.012616338 -0.045731403 -0.04663627 -0.020741845 0.019531893 0.04179261 0.03323004
-0.047784355 0.0020419287 -0.035170957 0.018775482 -0.05435189 0.03145712 -0.057263162 0.040095914
00000000: c20c 2b3d 1b16 a8bc 9caa 6cbd 8f7b 5cbd
00000010: 9050 c1bb 6d6c 1abd 3d22 3e3d aaa6 953c
00000020: c079 b1bb 8420 d2bc dd6d 30bd 4256 53bd
00000030: fab5 11bd 20d1 c6bc 460d 8b3d c53f 15bd
00000040: dc23 a33c 4aa0 0e3d 417a df3c d81c b6ba
00000050: c908 213d df71 a83d 6ada bd3c 559e 603c
00000060: 686a f2bc ee5e 8fbb f197 83bc ce46 293c
00000070: b44a 133d ffd4 bf3c 9e2f e63c 5b0f 69bd
00000080: 0615 483d 04a4 8e3d 2edd 60bd cb97 4abd
00000090: bc1b 8cbc 3bec f6bb a92f 543c 3975 493d
000000a0: 098e a5bc a8fe 52bd 5a91 cfbb fb0a dc3b
000000b0: 901d 1fbd ee3f 67bd 0c92 38bd a1d2 143c
000000c0: bfa2 97bb c2b4 4e3c da50 3bbd ac05 3fbd
000000d0: cdea a9bc 5901 a03c ba2e 2b3d 391c 083d
000000e0: 87b9 43bd e1d1 053b 6c0f 10bd 0acf 993c
000000f0: 16a0 5ebd 2ed9 003d c78c 6abd 9d3b 243d

net.7.weight f4 [2, 64]
0.010338687 0.12912628 -0.06583938 -0.10148762 -0.016758755 0.16090211 -0.021601232 0.09479918
0.0016141419 0.15205285 0.12170398 0.08432926 0.07541263 0.040462993 -0.038958445 0.00019281213
-0.05281979 0.13516188 -0.025903 -0.0017142721 -0.07879455 -0.10640347 0.074155666 0.13871649
0.057075024 -0.10553524 -0.062017027 0.062740795 0.015037858 0.06937827 0.13892072 0.0325808
0.13925476 -0.05689572 -0.013740997 -0.004273972 -0.08118893 0.07628827 0.14845516 0.028335666
-0.016332941 -0.036681443 0.010336107 -0.0185921 0.067583114 -0.06816909 -0.05861509 0.14820819
-0.08580146 0.15173995 -0.062303677 -0.05089137 0.12813725 0.11385375 -0.006320422 0.106921345
-0.061749265 -0.08025731 0.14481376 0.07681614 0.09287596 -0.07807818 0.06283944 0.062855385
-0.12395779 -0.116593964 -0.09758422 -0.08788353 0.03888683 0.02914344 0.00047048638 0.015270322
-0.0040378305 -0.1421329 -0.05008085 0.03867446 0.008759469 0.09789864 0.17253022 0.01495629
0.013441849 0.06869338 0.074700445 -0.1376635 -0.035360895 0.09408587 0.005973762 0.03499334
-0.008690042 0.07772377 -0.067412175 0.0952135 -0.043669585 0.12139708 0.06760746 0.074923016
0.0414947 0.13091384 0.017123558 -0.08096004 0.05206389 -0.03404928 0.020503886 -0.124248445
0.09445261 -0.11894712 -0.090980254 -0.020806363 0.12257753 -0.056438804 -0.035208866 0.07141909
-0.09544138 -0.028753202 -0.110823035 0.03814444 -0.062388662 0.020471629 0.044166297 -0.085617416
0.079332575 -0.05985531 -0.111769065 -0.005976726 0.083832845 -0.02542846 -0.028796542 -0.05716489
00000000: 9963 293c ae39 043e ccd6 86bd bed8 cfbd
00000010: a849 89bc 86c3 243e 11f5 b0bc 1326 c23d
00000020: 9d91 d33a beb3 1b3e f03f f93d d2b4 ac3d
00000030: f071 9a3d 86bc 253d e492 1fbd 9d2d 4a39
00000040: 9059 58bd e067 0a3e 8732 d4bc 6db1 e0ba
00000050: 095f a1bd 10ea d9bd edde 973d b20b 0e3e
00000060: 80c7 693d dc22 d8bd 9105 7ebd 3f7e 803d
00000070: 5961 763c 3216 8e3d 3c41 0e3e 7273 053d
00000080: cd98 0e3e 7d0b 69bd eb21 61bc ad0c 8cbb
00000090: 6246 a6bd 063d 9c3d a104 183e 3320 e83c
000000a0: a9cc 85bc 483f 16bd c658 293c 764e 98bc
000000b0: 0469 8a3d 3c9c 8bbd 6016 70bd e3c3 173e
000000c0: adb8 afbd b861 1b3e 2432 7fbd 7873 50bd
000000d0: 6936 033e 282c e93d 8b1b cfbb 94f9 da3d
000000e0: ccec 7cbd f25d a4bd 0f4a 143e c851 9d3d
000000f0: c035 be3d 74e7 9fbd f7b1 803d 53ba 803d
00000100: 95dd fdbd d1c8 eebd 3cda c7bd 48fc b3bd
00000110: cc47 1f3d 39be ee3c 9dab f639 5f30 7a3c
00000120: c74f 84bb 498b 11be 9421 4dbd 1c69 1e3d
00000130: e083 0f3c 157f c83d c3ab 303e 3a0b 753c
00000140: 333b 5c3c 1daf 8c3d 8cfc 983d a9f7 0cbe
00000150: 96d6 10bd 18b0 c03d 8cbf c33b 2d55 0f3d
00000160: ae60 0ebc a42d 9f3d 650f 8abd 4cff c23d
00000170: e1de 32bd 089f f83d c875 8a3d 3d71 993d
00000180: 59f6 293d 470e 063e b446 8c3c 61ce a5bd
00000190: f240 553d 4277 0bbd c4f7 a73c f875 febd
000001a0: 5f70 c13d 8c9a f3bd db53 babd 1b72 aabc
000001b0: ee09 fb3d 602c 67bd 2c37 10bd 2c44 923d
000001c0: c576 c3bd d68b ebbc 30f7 e2bd 583d 1c3d
000001d0: 418b 7fbd 1eb4 a73c b8e7 343d 2f58 afbd
000001e0: 1e79 a23d d72a 75bd 2ee7 e4bd 69d8 c3bb
000001f0: 8eb0 ab3d 594f d0bc bae6 ebbc bb25 6abd

net.7.bias f4 [2]
-0.029995175 0.021177115
00000000: 71b8 f5bc a17b ad3c
