cnn_model.pth (torch, 8749 bytes, 6 tensors)

net.0.weight f4 [8, 3, 3, 3]
0.11202868 0.016181175 0.21935152 -0.07601215 -0.07183102 -0.10416179 0.13666892 0.07626661
0.13770676 -0.11385953 -0.14917366 0.0782236 -0.12776335 0.08011215 -0.0024117955 0.08463148
0.14765045 0.20161581 -0.1710434 -0.020309666 0.22588657 -0.1791117 -0.10798701 0.22464718
-0.085990004 -0.12913114 -0.047675837 0.048154954 -0.03746638 -0.0833751 0.12745383 0.08206718
-0.10610742 0.12749554 0.10719362 -0.11011696 -0.06002553 -0.047175877 -0.21948434 0.12420742
0.024114214 0.13689554 0.02363855 0.014899967 0.09407603 0.012734489 0.07408897 -0.032032736
0.08198217 0.13282746 -0.008157694 -0.13178457 0.03573948 0.013020605 0.169499 -0.09868455
0.17149518 0.15240543 0.07862826 -0.082785256 0.13799126 0.03307434 0.11487918 0.20526157
0.14475799 0.06372306 0.11183656 0.18121439 0.06389741 -0.021205831 0.19327362 -0.122295156
0.025807384 0.112409204 -0.048455156 -0.07133001 0.17423248 0.11890512 0.0751835 -0.13701485
0.005282862 -0.19319825 0.05538867 -0.011254315 0.017406786 0.037581693 -0.12327053 0.1028126
0.12060556 0.018671805 0.056033295 0.02193643 -0.029223172 0.08929271 0.13828668 0.11958379
-0.0060039507 -0.07946715 0.070793726 -0.15414925 0.04894046 0.12567358 0.035088986 -0.088176854
0.0513304 -0.068510525 -0.08066708 0.20251998 -0.17841095 0.015877236 0.18174541 -0.021778226
-0.16061611 0.13014886 -0.15176539 0.18096235 0.06480908 -0.074449435 -0.13968535 -0.0071771713
0.03513695 -0.14423384 -0.103410766 -0.16485132 -0.08606152 -0.021666607 -0.08932631 -0.121812604
-0.120032966 0.1636708 0.032739114 0.17046604 -0.028966522 -0.12422966 -0.045293663 0.065284535
0.04191628 -0.061723396 -0.17869039 -0.12041444 -0.04914881 -0.01341465 -0.09848372 0.09034821
0.17516941 0.135879 -0.10807661 -0.038272057 -0.020859603 0.06894342 -0.014470524 -0.027688948
-0.08404566 -0.13556744 -0.04167055 0.110368595 -0.17826472 0.17231232 -0.11310535 0.11280029
-0.06760853 -0.009663464 -0.029626368 0.2288407 -0.08941365 -0.122058235 -0.046982728 0.22474015
-0.14171167 0.20372577 -0.058548346 -0.1009114 -0.030167533 0.13977313 -0.1117361 -0.10225374
-0.13297628 0.01057797 0.17687814 -0.12854126 0.11749152 0.14790636 -0.1390975 0.08011008
0.12968631 0.17218058 0.067356214 0.0997168 -0.0029399889 -0.011030383 0.012101183 0.17273471
-0.07977778 -0.08512689 0.20026068 -0.07727739 0.08853556 0.09972615 -0.16827163 0.23334596
-0.10551499 -0.11113657 0.19051541 -0.1291275 0.13389233 -0.07050123 -0.06516753 -0.08390468
0.03449834 0.2343975 -0.004439366 0.007916261 0.20942298 -0.011811866 0.006690565 0.1337711
00000000: 4b6f e53d 628e 843c af9d 603e 42ac 9bbd
00000010: 241c 93bd c752 d5bd f0f2 0b3e ab31 9c3d
00000020: 0003 0d3e 2f2f e9bd fbc0 18be b233 a03d
00000030: 65d4 02be d711 a43d 370f 1ebb 4553 ad3d
00000040: ae31 173e 6074 4e3e 0026 2fbe 7560 a6bc
00000050: cf4e 673e 0f69 37be 4b28 ddbd e909 663e
00000060: 871b b0bd f43a 04be bd47 43bd 213e 453d
00000070: 5976 19bd 90c0 aabd 4283 023e d612 a83d
00000080: d94e d9bd 318e 023e 5488 db3d 0085 e1bd
00000090: 55dd 75bd 7e3b 41bd 81c0 60be 7660 fe3d
000000a0: 2c8b c53c 582e 0c3e a2a5 c13c fe1e 743c
000000b0: efaa c03d 51a4 503c f5bb 973d c234 03bd
000000c0: 45e6 a73d ec03 083e d9a7 05bc 89f2 06be
000000d0: 9063 123d 6054 553c 2591 2d3e 201b cabd
000000e0: 6f9c 2f3e 2b10 1c3e da07 a13d 518b a9bd
000000f0: 954d 0d3e f678 073d c745 eb3d 1730 523e
00000100: 703b 143e 3c81 823d 910a e53d 4490 393e
00000110: a5dc 823d dab7 adbc 85e9 453e e275 fabd
00000120: 026a d33c cc36 e63d ea78 46bd 7815 92bd
00000130: 006a 323e 8784 f33d cff9 993d 9f4d 0cbe
00000140: dc1b ad3b c3d5 45be 3bdf 623d 0564 38bc
00000150: ad98 8e3c 43ef 193d 4275 fcbd 6a8f d23d
00000160: 0c00 f73d 9df5 983c 2b83 653d 07b4 b33c
00000170: 6f65 efbc 19df b63d 069b 0d3e 59e8 f43d
00000180: cabc c4bb acbf a2bd 4dfc 903d 4dd9 1dbe
00000190: cb75 483d 93b0 003e 78b9 0f3d 1196 b4bd
000001a0: d33f 523d 3f4f 8cbd c834 a5bd 6661 4f3e
000001b0: 5cb1 36be fa10 823c 781b 3a3e 4068 b2bc
000001c0: 8d78 24be be45 053e 6368 1bbe 324e 393e
000001d0: 9fba 843d f278 98bd ad09 0fbe 7a2e ebbb
000001e0: c3eb 0f3d 09b2 13be 06c9 d3bd c9ce 28be
000001f0: 0641 b0bd 2b7e b1bc b6f0 b6bd e378 f9bd
00000200: d8d3 f5bd 5199 273e 7319 063d a68e 2e3e
00000210: 334b edbc 1f6c febd d985 39bd e6b3 853d
00000220: 68b0 2b3d acd1 7cbd 9dfa 36be d99b f6bd
00000230: 4350 49bd 1fc9 5bbc d5b1 c9bd 7b08 b93d
00000240: 9c5f 333e dd23 0b3e 4557 ddbd 29c3 1cbd
00000250: c2e1 aabc 3532 8d3d c715 6dbc efd3 e2bc
00000260: 2220 acbd 31d2 0abe bdae 2abd ee08 e23d
00000270: 078b 36be a472 303e c7a3 e7bd d703 e73d
00000280: 5776 8abd 8153 1ebc ffb2 f2bc 3755 6a3e
00000290: 811e b7bd abf9 f9bd f670 40bd 4822 663e
000002a0: dd1c 11be 7d9d 503e 64d0 6fbd a3aa cebd
000002b0: e721 f7bc b020 0f3e e5d5 e4bd 696a d1bd
000002c0: ef2a 08be 394f 2d3c 8b1f 353e 52a0 03be
000002d0: 659f f03d c474 173e 936f 0ebe c110 a43d
000002e0: 7dcc 043e 1b50 303e 0ef2 893d 5238 cc3d
000002f0: d4ac 40bb c8b8 34bc 0a44 463c 5ee1 303e
00000300: 8862 a3bd 0257 aebd 2311 4d3e 9c43 9ebd
00000310: 2252 b53d 393d cc3d 664f 2cbe 3ef2 6e3e
00000320: 3e18 d8bd 929b e3bd 7916 433e 003a 04be
00000330: 121b 093e f362 90bd 8e76 85bd 38d6 abbd
00000340: 224e 0d3d e605 703e 1a78 91bb 35b3 013c
00000350: fa72 563e 8f86 41bc 873c db3b 4bfb 083e

net.0.bias f4 [8]
-0.006451304 0.067986995 -0.16295151 -0.045505457 0.055855677 0.15995659 0.1810174 0.023381475
00000000: 7665 d3bb c43c 8b3d c3dc 26be ee63 3abd
00000010: ecc8 643d a9cb 233e a05c 393e 828a bf3c

net.3.weight f4 [16, 72]
-0.05609594 -0.10755213 -0.11756865 -0.0056246184 -0.0022838125 -0.09224416 -0.1239523 -0.03506653
-0.11171903 -0.06490766 0.0065028123 -0.070665814 0.02868596 -0.051692817 -0.054894734 -0.0477552
-0.003339444 -0.0070360126 -0.08528302 0.087945126 -0.08972648 0.007702847 0.069877505 0.05207463
0.090776734 0.009112384 -0.029308636 0.0137875425 -0.029300997 -0.019292705 0.06638256 -0.03980675
0.11631533 -0.0500266 0.06635416 0.027473312 -0.013440682 -0.031220721 -0.07129625 0.036705613
0.026007868 -0.06291513 0.087154746 -0.028253533 -0.032765996 -0.104303 -0.05326192 0.025557768
0.085481204 -0.03717215 -0.09481756 0.07850309 0.014592935 -0.074273534 -0.11758415 0.077288166
0.026250701 0.04906404 0.010984034 -0.029192174 -0.001976865 0.032719716 -0.09531947 -0.027332542
0.040609386 -0.08316535 0.005707082 -0.10411272 -0.09231971 -0.08619626 -0.03881962 0.07388645
-0.028845217 0.0501526 0.057124577 0.06674088 -0.08914427 -0.011164099 -0.0693651 0.077781074
-0.08484618 0.06348294 -0.041863006 -0.12501387 0.06478771 0.082169645 0.032810356 0.015632255
0.080985546 -0.014327331 -0.08289032 0.012597903 0.013766701 -0.105215274 -0.060698375 -0.048911538
-0.05582662 0.048357688 -0.07105902 0.008060453 -0.00018934836 -0.102802426 0.053221323 -0.11098668
0.09330111 0.10686692 0.011841224 0.06584742 -0.0076542594 -0.046443157 -0.059646275 -0.032026842
0.05242797 0.0018991381 -0.04857868 0.10150977 -0.003624335 -0.044010367 -0.02575352 0.049229264
-0.103096224 -0.017726528 -0.0794567 0.079855636 0.013909985 -0.06438224 -0.0022705926 -0.064088255
0.07255022 -0.0056873625 0.105370134 0.00067808485 0.07323487 -0.11106893 -0.10214519 -0.038746163
0.051064737 0.043586418 -0.034744225 0.06618702 -0.022994153 0.010792723 0.028619854 -0.0659559
-0.00050044805 0.02045492 0.027179487 -0.089375705 0.087679885 0.004931122 0.034798197 0.08020658
-0.10524141 0.004749432 -0.078662455 0.06556248 -0.052235693 0.079653986 -0.11237361 0.089385085
0.08055308 -0.006725006 0.061634846 0.11736988 0.03269995 -0.062320255 0.060404636 0.06031639
-0.08031212 0.020287968 -0.043945476 0.0053536594 -0.10098882 0.089280166 0.045345716 -0.05797292
0.04113338 0.117558114 0.029131867 0.0308327 0.0051303804 0.11247227 0.08658033 0.087216415
0.09648929 -0.10053382 0.0016613007 -0.042540483 0.10907789 -0.026888676 0.00897605 -0.008600891
0.06889526 0.03117188 -0.026565537 -0.07742174 -0.051618002 -0.112236075 -0.08652988 -0.053446226
0.0784385 -0.016170934 -0.047407478 -0.032455444 -0.08222641 0.0737155 -0.01546102 -0.05414965
-0.037812777 -0.057211902 -0.10685461 -0.10136959 0.09742188 -0.09673919 -0.023998529 0.1029825
0.082069226 -0.034819093 0.09446827 -0.093700804 0.055820063 0.08870701 -0.05292283 0.0903328
-0.06128353 -0.09269357 0.011807013 0.07866688 -0.03265349 0.012612511 0.03607698 0.0027011018
0.065695666 -0.0017126922 -0.050766505 -0.023005025 -0.13123009 -0.04850442 0.086458206 0.030730782
-0.017960196 -0.03967103 0.02696195 0.08963193 0.012666008 0.11100402 0.021861343 -0.03444228
-0.09206473 -0.0054414994 0.001077358 -0.021164747 0.032684315 0.054255392 -0.07034327 -3.683765e-06
00000000: dbc4 65bd 4b44 dcbd d5c7 f0bd b84e b8bb
00000010: 04ac 15bb 82ea bcbd b4da fdbd eca1 0fbd
00000020: f2cc e4bd 4fee 84bd 8b15 d53b 3db9 90bd
00000030: d2fe ea3c d9bb 53bd 4dd9 60bd f59a 43bd
00000040: 93da 5abb 5a8e e6bb dda8 aebd 931c b43d
00000050: 84c2 b7bd 2a68 fc3b f01b 8f3d 354c 553d
00000060: 27e9 b93d 1c4c 153c aa18 f0bc 25e5 613c
00000070: a508 f0bc bc0b 9ebc 94f3 873d 670c 23bd
00000080: bb36 ee3d b1e8 4cbd b1e4 873d b60f e13c
00000090: 4e36 5cbc 99c2 ffbc c503 92bd a058 163d
000000a0: 740e d53c a6d9 80bd 307e b23d f473 e7bc
000000b0: a335 06bd d09c d5bd 2c29 5abd 865e d13c
000000c0: c510 af3d d341 18bd b52f c2bd 3ac6 a03d
000000d0: 3517 6f3c b91c 98bd f5cf f0bd 4249 9e3d
000000e0: b60b d73c 60f7 483d 61f6 333c 6d24 efbc
000000f0: 4b8e 01bb 1c05 063d db36 c3bd 7fe8 dfbc
00000100: 0756 263d 9852 aabd 7902 bb3b 0d39 d5bd
00000110: 1e12 bdbd aa87 b0bd 5201 1fbd c751 973d
00000120: ce4c ecbc d06c 4d3d 76fb 693d 71af 883d
00000130: 4591 b6bd a0e9 36bc 4a0f 8ebd af4b 9f3d
00000140: d6c3 adbd 5803 823d 8b78 2bbd a303 00be
00000150: 6baf 843d 8f48 a83d 2764 063d 370f 803c
00000160: c0db a53d 2fbd 6abc 66c2 a9bd 6f67 4e3c
00000170: bb8d 613c 1b7b d7bd dc9e 78bd 7757 48bd
00000180: 74aa 64bd b612 463d 6487 91bd fe0f 043c
00000190: d08b 46b9 148a d2bd 9afe 593d fc4c e3bd
000001a0: a714 bf3d 0bdd da3d b101 423c 03db 863d
000001b0: 95d0 fabb 2e3b 3ebd a74f 74bd 942e 03bd
000001c0: b6be 563d 80ec f83a 70fa 46bd 5be4 cf3d
000001d0: 4086 6dbb 3744 34bd 0cf9 d2bc a0a4 493d
000001e0: 1d24 d3bd 3937 91bc 32ba a2bd 5a8b a33d
000001f0: b5e6 633c d6da 83bd 39ce 14bb b440 83bd
00000200: 3695 943d 0e5d babb 4ccc d73d 81c1 313a
00000210: 2afc 953d 1b78 e3bd 7f31 d1bd 4cb4 1ebd
00000220: 4229 513d ac87 323d f64f 0ebd 0f8d 873d
00000230: 3c5e bcbc f6d3 303c 2f74 ea3c e313 87bd
00000240: 8030 03ba 1491 a73c 84a7 de3c 9c0a b7bd
00000250: 8391 b33d 4095 a13b 8e88 0e3d 5943 a43d
00000260: cf88 d7bd 20a1 9b3b c819 a1bd 9f45 863d
00000270: 18f5 55bd a121 a33d 2324 e6bd 870f b73d
00000280: 03f9 a43d 705d dcbb d274 7c3d 9f5f f03d
00000290: 62f0 053d 8643 7fbd da6a 773d 520e 773d
000002a0: ae7a a4bd f432 a63c 2c00 34bd c06d af3b
000002b0: 3ad3 cebd 85d8 b63d 6ebc 393d 0375 6dbd
000002c0: 7a7b 283d 4fc2 f03d f4a5 ee3c dc94 fc3c
000002d0: c01c a83b dd57 e63d 0751 b13d 859e b23d
000002e0: 2d9c c53d ade4 cdbd 00c0 d93a ee3e 2ebd
000002f0: 3b64 df3d a445 dcbc 4810 133c c0ea 0cbc
00000300: f518 8d3d 2c5c ff3c f89f d9bc 4a8f 9ebd
00000310: 666d 53bd 07dc e5bd 9436 b1bd 6eea 5abd
00000320: 5da4 a03d e878 84bc 582e 42bd 00f0 04bd
00000330: 5266 a8bd 27f8 963d 3850 7dbc 06cc 5dbd
00000340: 92e1 1abd 0757 6abd 97d6 dabd dc9a cfbd
00000350: 1f85 c73d 321f c6bd 9098 c4bc 7de8 d23d
00000360: e913 a83d 779e 0ebd 9578 c13d 35e6 bfbd
00000370: 94a3 643d 05ac b53d 9cc5 58bd 6700 b93d
00000380: 7004 7bbd 20d6 bdbd 3472 413c 1a1c a13d
00000390: aabf 05bd b5a4 4e3c 75c5 133d f804 313b
000003a0: 738b 863d 6a7c e0ba 8af0 4fbd 0975 bcbc
000003b0: 2e61 06be 92ac 46bd 0011 b13d 1fbf fb3c
000003c0: 4321 93bc 177e 22bd 4fdf dc3c f290 b73d
000003d0: 1785 4f3c 1356 e33d 8f16 b33c 5913 0dbd
000003e0: 6f8c bcbd 9b4e b2bb 2336 8d3a b161 adbc
000003f0: fddf 053d e73a 5e3d 2210 90bd 9a36 77b6

net.3.bias f4 [16]
-0.028319972 -0.07772645 -0.016427144 -0.055315573 -0.016376112 0.092911676 -0.10159974 -0.09309663
0.028042652 0.07815195 -0.08713069 -0.023333905 -0.027857205 -0.10664774 -0.011467601 -0.096171506
00000000: 49ff e7bc 0c2f 9fbd 3892 86bc 9592 62bd
00000010: 3227 86bc 7a48 be3d 8613 d0bd 72a9 bebd
00000020: b4b9 e53c 210e a03d 9371 b2bd bf26 bfbc
00000030: cb34 e4bc 216a dabd 9be2 3bbc 91f5 c4bd

net.5.weight f4 [2, 16]
-0.12454119 0.05846732 -0.13917693 -0.06459172 0.012158821 -0.097257756 0.021076975 -0.23991276
0.27279675 -0.2775195 0.18221179 0.22580612 0.27317807 -0.24618292 0.18544196 -0.04195424
-0.092970625 0.15857317 -0.19686908 0.024766019 -0.2261978 0.1529372 -0.17872494 0.1941212
-0.16345118 -0.031997908 -0.22901487 -0.14043704 0.047198717 0.0826228 -0.21934332 0.057369426
00000000: 740f ffbd 6e7b 6f3d 6684 0ebe aa48 84bd
00000010: cb35 473c 132f c7bd 9fa9 ac3c b1ab 75be
00000020: 04ac 8b3e 0917 8ebe ba95 3a3e b839 673e
00000030: ffdd 8b3e 6017 7cbe 7fe4 3d3e 36d8 2bbd
00000040: 6267 bebd 0161 223e 0c98 49be 1be2 ca3c
00000050: 65a0 67be 929b 1c3e ac03 37be b5c7 463e
00000060: bf5f 27be 3d10 03bd e082 6abe bace 0fbe
00000070: 7153 413d 2436 a93d 899b 60be 34fc 6a3d

net.5.bias f4 [2]
0.1169465 -0.124253176
00000000: a681 ef3d 7378 febd
