unet_model.pth (torch, 477237 bytes, 25 tensors)

enc1.0.weight f4 [16, 3, 3, 3]
000000 b5 b2 4d bd 9a a9 6f 3c 82 8e 0b be f5 30 db bd
       -0.050219256 0.0146278385 -0.13628581 -0.10702697
000010 7f 08 81 3d 19 74 b7 3d d3 c3 ed 3c a1 cd 0d 3d
       0.063004486 0.08957691 0.02902404 0.03461993
000020 34 fc 83 bd df e6 28 3d d8 2b 87 bd b9 1e c8 3d
       -0.06444588 0.0412358 -0.066001594 0.09771485
000030 2e 87 d4 3d e0 89 c3 bd 39 35 50 bd 25 fa d8 3d
       0.10377346 -0.09547782 -0.050832007 0.10594586
000040 91 0f 6a bd 25 02 d1 bd d0 50 b8 3d e7 84 c8 3d
       -0.05714375 -0.10205487 0.08999789 0.09790974
000050 b0 c9 e2 3c cd 6d 84 3c 38 78 1b 3e 41 0e 65 3d
       0.027684063 0.016165638 0.15182579 0.055921797
000060 93 88 98 bd 90 d5 42 3e d4 67 50 3e 08 d7 e7 bd
       -0.074479245 0.1902678 0.20352107 -0.11320311
000070 51 4d fb 3d 5d 91 8d bc 6e 42 38 3e 82 20 94 bc
       0.12270606 -0.017281229 0.17994091 -0.018081907
000080 12 ba d5 bc db 5f 00 be 57 e9 2e 3e 7b 82 12 3e
       -0.026089702 -0.12536566 0.170812 0.14307587
000090 ef 51 2f 3e 16 d8 39 be 1b 6a 16 bc 48 cb 43 bd
       0.17121099 -0.18148836 -0.009180571 -0.047801286
0000a0 3e de 32 bb b5 12 e2 3d 1f c9 84 3c 35 ad 02 be
       -0.0027293111 0.11038724 0.016209183 -0.12761386
0000b0 1c 1a f5 bd 48 91 da 3a a0 ec c3 bd 71 4b 26 3e
       -0.119678706 0.0016675377 -0.09566617 0.16239716
0000c0 b1 ad eb 3d 14 db 94 bb 2a 8c b6 3c 7b f6 04 3e
       0.115077384 -0.0045427177 0.022283632 0.1298465
0000d0 d4 d2 9f 3d 83 bf 31 bb e5 9a de bc 23 d4 24 3e
       0.07803884 -0.0027122207 -0.027173469 0.16096549
0000e0 7c 1d d1 bd d6 1a 5e 3c e6 2e 00 bd 3c 46 6c 3d
       -0.10210702 0.013556203 -0.031294726 0.05768417
0000f0 d3 66 aa bd 6c da 04 3e 8f 02 1a bd 08 60 c1 bd
       -0.083203934 0.12973946 -0.037600096 -0.09442145
000100 ce f4 dd bd d8 25 7a 3d 4a 5d fe bd b9 45 9d bc
       -0.108377084 0.061071247 -0.12420137 -0.019198285
000110 ee 37 69 bd 4a 01 21 bd 2e 1f 03 3e ef 30 0d be
       -0.056938104 -0.03930787 0.12804863 -0.13788198
000120 e5 b6 0d bd 9a 05 b9 bd 69 45 ca bb 10 66 c7 3d
       -0.03459825 -0.090342715 -0.006172825 0.09736264
000130 36 dc 45 bb 14 5f 11 3e 05 be 14 bd c9 dc 22 be
       -0.003019107 0.14196426 -0.03631403 -0.15904535
000140 63 cb 30 3d ea 6c 39 bc be 66 22 3e d0 18 26 3e
       0.043162715 -0.011317471 0.15859506 0.16220403
000150 3d 04 84 bd 5e 1e f5 bd c8 2d 49 bd 96 60 e6 3d
       -0.06446121 -0.11968683 -0.049115926 0.11248891
000160 c2 5d 90 3d f9 5d 08 be 68 f7 fc 3d fb f8 ff 3c
       0.07049133 -0.13317098 0.123518765 0.031246653
000170 b1 d8 08 3d b5 52 3f 3c 85 45 11 bd 37 f5 09 3e
       0.033409778 0.011677434 -0.03546669 0.13472448
000180 3c c0 0a be 2d fa 3f 3e f8 07 22 3e cd d8 36 3e
       -0.13549894 0.18747778 0.15823352 0.1785614
000190 54 c8 6a 3b e8 69 fd 3d a5 da a6 bd 5d d4 1d be
       0.0035824971 0.12373716 -0.08147172 -0.15413041
0001a0 86 61 ba bd a5 c1 2d 3e 4b 0a 19 3e d3 ab da 3d
       -0.09100632 0.16968401 0.14945333 0.10677304
0001b0 f2 e3 24 be a1 77 e6 bd ee cc 1e be 10 7d 2b 3d
       -0.16102579 -0.11253286 -0.15507862 0.041867316
0001c0 d3 a6 38 be 08 ff 86 bc 4a 0f 41 be e0 91 d5 3c
       -0.18032388 -0.01647903 -0.18853489 0.026070535
0001d0 6e 5b b8 3d d7 ab 09 3e 7a 74 b1 3d 8c c5 2a bd
       0.09001814 0.13444458 0.08664794 -0.0416923
0001e0 ad 1d fe bd a8 c0 9f 3c 0d 8b 3e be d6 d1 12 be
       -0.12408004 0.019501045 -0.18607731 -0.14337859
0001f0 38 8b a1 bc 5a 8a ac bd 01 d1 05 3e 42 d3 24 be
       -0.019719705 -0.08424826 0.1306801 -0.16096213
000200 80 12 a4 ba 64 b0 7b bd 02 c7 b9 3d 3f 1e 41 be
       -0.001251772 -0.061447516 0.09071161 -0.18859194
000210 b1 c8 37 3e ff df 00 3e d9 c4 41 3e 90 79 a9 3c
       0.17947651 0.12585448 0.18922748 0.020687848
000220 4a 04 19 be 00 f4 17 ba 46 e4 32 be 6e 35 13 be
       -0.14943042 -0.00057965517 -0.17469892 -0.1437585
000230 da 08 0f be 48 70 11 bd 98 d8 30 be 3e 90 a1 bc
       -0.1396822 -0.03550747 -0.17270124 -0.0197221
000240 20 65 33 bc a3 b7 95 bd a7 01 3e be 08 07 7e bd
       -0.010949403 -0.073104165 -0.18555318 -0.062018424
000250 cc 86 31 3c dc 40 18 3e 6d ea cb bd f0 cc 6a bc
       0.010835361 0.14868492 -0.099568225 -0.0143310875
000260 f4 1c b2 bc 0f 2b 0a 3e 3b 7d a0 bd a0 55 2a 3c
       -0.021742322 0.13492988 -0.07836386 0.010396391
000270 cc a8 be bd f1 c2 2d 3d 79 00 80 3a 27 95 95 bd
       -0.09309539 0.04242224 0.0009765766 -0.07303839
000280 75 16 32 3e 3d 40 58 3c 10 62 d5 3b 29 cf ca 3d
       0.17391379 0.013198909 0.006511934 0.09902794
000290 4b 4b b8 3d c3 99 26 3e b9 1b 1a 3e e7 c0 13 3e
       0.08998736 0.16269593 0.15049638 0.14429055
0002a0 5c 2d 75 3c 27 96 24 3d 2f a0 88 3c e0 08 b4 bd
       0.014964428 0.04018226 0.016677944 -0.08790755
0002b0 fb 34 02 3c 4e fd 13 3c 06 db a3 3c b1 80 59 bd
       0.007947202 0.0090325605 0.0200019 -0.053101245
0002c0 7f cf 33 3e ab 57 d2 bd 75 21 86 bb 0a 31 0e 3e
       0.17559622 -0.102706276 -0.004093344 0.13885894
0002d0 e8 0e c2 3d 8c 4b 08 3e 9a 43 4f bc 90 06 20 3d
       0.094754994 0.13310069 -0.012650395 0.03906876
0002e0 e0 01 32 3e 8e 9d 65 bd 0f 30 06 be 3e f9 ab 3c
       0.17383528 -0.05605846 -0.1310427 0.020992871
0002f0 bd e5 2c 3e 3c d3 63 3d fd 15 1a 3e 1f 4f 3f 3e
       0.16884513 0.05562137 0.1504745 0.18682526
000300 36 ae 9b 3d 3e 53 27 be 48 bf f3 bc 1a bf 40 be
       0.076015875 -0.16340348 -0.029754296 -0.188229
000310 08 8d 72 bd d6 43 ed bd 76 86 c3 3d 00 0a 96 bb
       -0.05921653 -0.11585204 0.09547131 -0.004578829
000320 74 f7 14 bd 00 b8 62 3a 92 9c dc bd 1c 46 74 3d
       -0.036368802 0.0008648634 -0.10772051 0.059637174
000330 04 36 21 be e0 b4 90 bb 2f db 20 be 5b 83 21 be
       -0.15743262 -0.004416093 -0.15708612 -0.15772764
000340 3b 12 30 be 2c 7e 25 be 1e 37 8e bd a0 04 ec bc
       -0.17194454 -0.16161412 -0.069441065 -0.0288108
000350 0a 77 99 3d cc 72 e8 bd 6a 64 f3 3d ba f8 af 3d
       0.07493408 -0.11350021 0.11884387 0.08592363
000360 1c 13 1a be 84 8c 28 3e d2 ec c0 bd 28 c8 0c 3e
       -0.15046352 0.16459852 -0.0942017 0.13748229
000370 6f 73 2f 3e 27 9d 82 3d af 36 5d 3d 84 b1 f8 bd
       0.17133878 0.06377631 0.05400723 -0.121432334
000380 3e f7 c6 bd b2 c4 90 bd 09 23 df 3d a6 48 f3 bc
       -0.097151265 -0.07068767 0.10895354 -0.029697727
000390 3d ca 5a 3d fb e7 ad 3c 5d cc 99 3d 9a e9 2a be
       0.053415526 0.021228781 0.07509682 -0.16690674
0003a0 57 fb ba bd 3b e8 99 ba 49 2f 0c be c2 83 af 3d
       -0.091299705 -0.0011742184 -0.13689913 0.08570053
0003b0 42 ab 63 bd 13 14 99 bb 61 33 8a 3a 09 97 12 3e
       -0.055583246 -0.0046715825 0.0010543877 0.14315428
0003c0 a0 95 fe bd e7 77 0a be 35 7f c5 3d a8 3d cd 3c
       -0.124308825 -0.13522302 0.096434034 0.025053814
0003d0 17 09 ed 3d c7 13 2a 3e 5d 44 28 3e 37 f1 81 bc
       0.115739994 0.16609107 0.16432329 -0.01586209
0003e0 3b 38 41 3d 35 ce c5 bd b4 d9 34 bd b7 70 a9 3d
       0.047172766 -0.096584715 -0.04415293 0.08273452
0003f0 96 e0 9b bd 37 9a 9d bd a1 f9 98 3d 62 8e 26 bd
       -0.07611196 -0.0769543 0.07469488 -0.04066313

enc1.0.bias f4 [16]
000000 14 8a 99 3d 82 52 04 3c 9e fb 34 3e 98 69 ea 3d
       0.074970394 0.008076312 0.1767411 0.11445922
000010 c8 1c 23 be 03 f5 dc bd 75 07 31 bd cc 86 77 bd
       -0.15928948 -0.1078892 -0.043220002 -0.060431287
000020 10 78 12 3d e8 54 54 bd a5 5c f3 3d 5b 40 9c bd
       0.03575903 -0.051838785 0.11882905 -0.07629462
000030 7e c7 fd 3c 52 d5 ba 3d 3f 93 07 3e 71 d5 39 bd
       0.030978914 0.09122719 0.13239764 -0.04536957

enc1.2.weight f4 [16, 16, 3, 3]
000000 38 42 03 3d 99 67 3d 3d dd 08 ef bb d3 06 69 bd
       0.032045573 0.046241377 -0.0072947578 -0.056891274
000010 3f e9 18 bd 75 98 8c 3d 57 3c 4f bd a0 89 97 3d
       -0.037331816 0.06865016 -0.050594654 0.07399297
000020 6a 95 80 bd 66 99 95 bb 3b 91 37 3d ac 11 57 bd
       -0.062784985 -0.0045654057 0.044816237 -0.052507088
000030 76 7e 07 3d 85 fc b8 bd df 75 75 3d 06 20 47 3d
       0.033079587 -0.09032539 0.059926864 0.048614524
000040 24 cb 24 bd 6c a5 51 3c 16 7d 04 bc 68 a8 4c bd
       -0.040232792 0.012795787 -0.008086463 -0.049965292
000050 7b 82 26 bc cd 3a a8 bd 39 b0 2d 3d f2 84 ab bd
       -0.010162945 -0.0821434 0.042404387 -0.08374967
000060 e0 d1 a9 ba 00 d9 56 3d 3c 9d 60 bd 4a 8a a3 bd
       -0.0012956224 0.05245304 -0.05483745 -0.07985361
000070 be d6 40 bd 48 36 a1 3c 8a 56 e3 3c 6f 99 a4 3b
       -0.047079794 0.019679204 0.027751226 0.0050231735
000080 83 a9 61 bd a3 39 74 bc b9 3e 81 bd a4 38 21 3d
       -0.0550933 -0.01490632 -0.063107915 0.039360657
000090 3b d2 a7 bd 52 58 2f 3d 42 ad 5b 3d c0 0a b2 bc
       -0.08194395 0.04280884 0.05363203 -0.021733642
0000a0 2a 28 13 3d 00 f4 8d bb 78 00 44 bc 00 3e 0b bc
       0.035926975 -0.0043320656 -0.011963002 -0.008498669
0000b0 b4 13 aa bc 80 18 07 3c 2f 61 85 3d 28 ce 53 3c
       -0.020761348 0.008245587 0.06512677 0.012927569
0000c0 88 a9 17 bd 90 07 4a 3d de 4c 9a bd 7f b2 8f 3d
       -0.037026912 0.04932362 -0.075341925 0.07016467
0000d0 a8 dc 29 3d 58 0f 42 bd 63 6e 29 3c db bb aa bc
       0.0414702 -0.047377914 0.01034126 -0.02084153
0000e0 f6 18 15 bc d8 a7 f6 bc 9a 96 38 bc 9b 74 bd bc
       -0.009100189 -0.030109331 -0.011266375 -0.02312689
0000f0 83 2a 44 3d 6f d2 45 bd d8 24 be bc 9b c9 8e 3d
       0.047892105 -0.04829639 -0.023210928 0.06972047
000100 54 3a e7 3c 80 81 ad bb 0c 73 9b 3c 76 7c ef bc
       0.028226055 -0.0052949786 0.018975757 -0.029234152
000110 56 fc 79 bd dc ea fc 3c a2 0b 3e 3d 1e 76 6d bd
       -0.061031662 0.030873708 0.046397813 -0.057973973
000120 fc 72 8b 3c 1c a7 0c 3c 7e 2e 86 3d e6 65 ff bc
       0.017022602 0.008584764 0.065518364 -0.031176519
000130 8e 54 a8 bd f8 ec 08 bc 3a ea f8 3c 88 b0 89 3d
       -0.082192525 -0.008357279 0.030385125 0.06723124
000140 9c 14 73 3d 07 50 24 bd af 30 5c 3d 35 d9 3e 3d
       0.059345827 -0.040115383 0.053757366 0.046593864
000150 6a 03 4b 3d 15 ae 83 bd 50 89 61 3d d0 30 1f 3d
       0.049563803 -0.06429688 0.055062592 0.03886491
000160 8c 28 6f 3d 36 49 a0 bd bb 29 4d 3d 86 e7 90 3c
       0.058388278 -0.07826464 0.050088625 0.017688524
000170 d8 47 84 bd 0b c2 2f bd 3f ac 8f bd 52 47 93 3d
       -0.064590156 -0.042909663 -0.07015275 0.07191338
000180 73 bd 99 bc 23 22 70 3d 7d 19 c3 bc b0 a4 de 3b
       -0.018767094 0.058626305 -0.023815865 0.0067945346
000190 96 dd 2c 3d cd dd 91 3d 9a a4 79 3d a0 ab 35 bd
       0.04220351 0.07122383 0.060947992 -0.044353127
0001a0 70 cd b1 bb b0 47 ce 3c 00 e7 8e 39 a6 3d 00 3d
       -0.0054261014 0.025180668 0.0002725646 0.031308793
0001b0 71 0b 72 3d f2 e4 27 bc ea ca 94 3d e0 a5 79 bd
       0.059092943 -0.010247456 0.07265265 -0.060949206
0001c0 7f 5e 7f bd b2 13 5c 3d 6c 9d 82 bd 45 f8 17 bd
       -0.062345978 0.05372972 -0.06377682 -0.037102003
0001d0 f8 e4 42 bd 12 23 d3 3c 59 4d 82 bd 32 00 2d bd
       -0.047581643 0.025773559 -0.06362409 -0.042236514
0001e0 dc 66 84 bc 27 b7 b4 bd 36 e5 fd bc 9a bf 38 3d
       -0.016162328 -0.08823996 -0.030993085 0.0451046
0001f0 7d c7 8b bd f2 77 36 3d 90 27 af bd 38 fc 4a bd
       -0.06825159 0.044547983 -0.08552468 -0.04955694
000200 75 a8 1b bd 72 25 6a bd d9 ae 36 bc 1a 99 15 bd
       -0.03800245 -0.057164617 -0.011150085 -0.036522962
000210 50 74 ad 3b eb 30 29 bd b8 0c b8 bd 25 7e 4c 3c
       0.0052934065 -0.041306417 -0.08986801 0.012481247
000220 24 22 80 bd 50 e0 86 bd 83 e8 2c bd b3 e2 20 3d
       -0.06256512 -0.06585753 -0.042213928 0.039278697
000230 15 d1 ab 3d a7 0a 7b 3b b4 22 46 bd d2 96 8e 3d
       0.083894886 0.003830591 -0.04837294 0.069623604
000240 d8 ed 04 3c 42 03 2c bc c2 fe 30 3b 78 a0 18 bc
       0.008113347 -0.010498824 0.0027007316 -0.0093156025
000250 30 ea 92 bd f2 56 4d bd 3b 20 ad 3d e9 1f 2c bd
       -0.07173574 -0.050131746 0.08453413 -0.04202262
000260 00 4a 3b 3d 9a 73 9f 3c df fe 4e bd 98 59 cc 3b
       0.04572487 0.019464303 -0.050536033 0.0062362663
000270 e1 46 5d bd 4e 5b 93 3b 5a b8 7f bb 8b 4e 3e 3c
       -0.054022674 0.0044969684 -0.0039019794 0.011615406
000280 6d 3a 90 bd dc a1 fe bc 69 1f 08 3d 57 93 c3 bc
       -0.07042394 -0.03108304 0.03323308 -0.023873968
000290 d8 13 83 bd 08 28 b3 bd a1 bd 7e bd a5 18 5b 3c
       -0.06400269 -0.0874787 -0.062192563 0.013372575
0002a0 a8 61 8f 3c 96 96 8c bd c0 8c a6 bc c7 85 17 3d
       0.01750262 -0.068646595 -0.020330787 0.036992814
0002b0 2b 08 5b bd 25 84 1f 3d 89 98 f6 bc 15 1d f8 3c
       -0.053474586 0.038944382 -0.030102031 0.030287305
0002c0 7d 4c f7 3c 1f 4d 01 3a 99 8f 41 3d 2b 34 a1 bc
       0.03018784 0.00049324514 0.047256086 -0.019678196
0002d0 5b e6 5d bd 6c e6 91 bd c3 4d 93 3d 45 45 82 3d
       -0.054174762 -0.071240276 0.07192566 0.06360868
0002e0 ec 55 a2 3c e8 6c 31 bc b3 c2 3b bd 3d 2d a7 3d
       0.019816361 -0.010829188 -0.045839977 0.081629254
0002f0 e3 a7 8e 3d 7f 9c 91 bd 10 74 d2 3c b3 29 63 bd
       0.069656156 -0.071099274 0.025690109 -0.05545969
000300 f8 ff 5b bd 15 01 44 bb 7e 2c 26 3d d0 ff 3f bd
       -0.053710908 -0.0029907872 0.040569775 -0.04687482
000310 b2 c8 27 3d 3f 3b a3 bd 7c 94 42 bd aa 17 86 bd
       0.040962882 -0.07970285 -0.047504887 -0.06547482
000320 3a 68 d1 3c 88 36 82 bd 6c 2b be 3c d8 06 89 3b
       0.025562394 -0.06358057 0.023214065 0.004181724
000330 ea 5a f5 bc 6f 85 a1 bd c7 56 69 3d 0c 73 c1 3c
       -0.029950578 -0.078867786 0.056967523 0.023614429
000340 60 65 09 bd 20 6b 54 3b a4 15 de 3c 9d cd 80 3d
       -0.033543944 0.0032412484 0.027109928 0.062892176
000350 86 43 7c bd c4 47 b1 3c b4 6c 88 bc aa b7 4b 3d
       -0.061587833 0.021640666 -0.016653396 0.049735703
000360 d7 8f 71 3d a4 a0 79 bd 91 6f d0 bc 35 d4 6c bc
       0.058975067 -0.060944214 -0.025443824 -0.014454891
000370 44 d8 bd 3c 88 fb 84 bd e9 58 8d bd 23 e2 43 bd
       0.023174413 -0.06493288 -0.06901724 -0.047823083
000380 f0 16 4d bd 83 82 08 3b 2b de 3b 3d 62 52 89 bd
       -0.050070703 0.0020829744 0.045866173 -0.067051664
000390 92 46 5b 3c 9f 4f 85 3c 8b 13 68 3d 9c 54 77 bd
       0.0133835245 0.016273318 0.056659263 -0.060383424
0003a0 6a e8 b8 3b 73 16 90 bd 99 f8 87 bd 20 32 4a bc
       0.0056429403 -0.07035532 -0.06639213 -0.012341052
0003b0 cf a8 8e bc 70 ab 72 bd 2b 0f 22 3d 7e 50 37 3d
       -0.017414479 -0.059245527 0.039565247 0.044754498
0003c0 6d 59 52 3d 6a 93 23 bd ba 83 99 bd 00 d9 bc bb
       0.051354814 -0.039935507 -0.07495828 -0.005763173
0003d0 cc 7d 9b bc c0 be cc ba f4 c7 cf 3c cc 33 85 bc
       -0.018980883 -0.0015620813 0.0253639 -0.01626005
0003e0 5b 54 9d bd ca cb 74 3d f3 6b 15 bd e8 57 12 3d
       -0.07682105 0.05976466 -0.0364799 0.035728365
0003f0 13 10 8a 3d 48 7e 50 3d b2 b2 e5 bc 41 d3 c8 bc
       0.06741347 0.05090168 -0.02803931 -0.024514796

enc1.2.bias f4 [16]
000000 aa 47 91 3d 86 9c 96 3d f8 67 e1 bc 31 59 0d 3d
       0.07093747 0.07354073 -0.027515396 0.034508888
000010 3a 4b 37 3d f8 24 68 bc e7 b6 6d bd d5 b0 a9 ba
       0.044749476 -0.01416897 -0.058035757 -0.0012946377
000020 3c 28 99 3d 04 74 07 3c 14 e6 16 3c d5 ac 1a 3b
       0.07478377 0.008267406 0.009210128 0.002360155
000030 78 4e eb 3b fe 18 d5 3c ec e1 8e 3d 37 1d 53 3d
       0.007180985 0.026012894 0.06976685 0.051541533

enc2.0.weight f4 [32, 16, 3, 3]
000000 40 08 52 bc 8f 1d 42 3d 30 e9 c8 3b 89 37 16 3c
       -0.01281935 0.04739147 0.0061313137 0.009168514
000010 96 a6 49 bd 43 fa 54 bd d8 ac 4b 3c 97 be 5a bd
       -0.049231134 -0.05199648 0.012431346 -0.053404417
000020 56 2f 74 3d 56 13 a6 bb 89 42 8f bd ca 6e 51 bc
       0.059615456 -0.005068223 -0.069951124 -0.012782762
000030 70 30 28 3d cc 62 cc bb 4c f8 0c 3c 98 90 91 bd
       0.04106182 -0.0062373634 0.00860412 -0.07107657
000040 3b 41 8a bc b3 9a 29 3d f4 bd 9d bd e2 eb ed 3c
       -0.016876807 0.0414073 -0.07702246 0.029043142
000050 04 7e ae bc c6 95 42 3d a6 7b a9 bd 6b 8d 42 bc
       -0.021300323 0.047506116 -0.08275537 -0.011874537
000060 78 7d 8c bd 7b 28 c0 3c b8 61 a6 3c 17 4b 92 bd
       -0.06859869 0.023456803 0.020310268 -0.071432285
000070 b5 ea 30 bd 62 5e 4b bd d0 7b 79 3d 3d 1c 14 bd
       -0.043192584 -0.049650557 0.060909092 -0.036159743
000080 cf d2 88 bc 9c 3e ea 3c e7 d4 48 3c 24 10 5f 3d
       -0.016702084 0.028594308 0.012257791 0.054458752
000090 7a 78 8f bc ab 32 8b 3d c0 7e 0d bd 07 a1 84 bd
       -0.017513502 0.067967735 -0.034544706 -0.06476026
0000a0 ad dc d0 3c 3b b7 3f 3d 14 c4 f0 bc 67 4d 97 bd
       0.025495851 0.0468056 -0.029390372 -0.0738781
0000b0 23 e4 66 3c eb b6 16 3d ab 95 57 3a 28 97 e0 3a
       0.014092478 0.036795538 0.00082239014 0.0017134892
0000c0 de 26 09 bd 76 54 50 bd a8 1b 98 3d 89 80 dd 3c
       -0.033484332 -0.0508618 0.0742715 0.02703883
0000d0 dc 6a 3f 3d 02 9e 63 3c 23 54 a6 bc a4 cd 7a 3d
       0.04673277 0.0138926525 -0.020303791 0.06123127
0000e0 6b ee 9d bd dd 86 65 3d 47 b9 90 bd 98 a1 4d bd
       -0.0771149 0.05603682 -0.07066589 -0.050202936
0000f0 6f 5a 84 3d 26 fe 80 bd 12 f3 5b 3d f6 5b d1 bc
       0.06462561 -0.06298475 0.053698607 -0.025556546
000100 8c 5a 72 3a f6 9b c7 3c 03 70 b3 3c f1 f5 6a 3d
       0.000924506 0.02436636 0.021903997 0.057363454
000110 3d 03 c4 3c 90 e1 16 3d c5 48 d8 3c 37 e9 11 bd
       0.023927325 0.036836207 0.026401887 -0.0356228
000120 72 9c a0 3d 09 2d 60 bd c7 16 ec b9 89 4b 36 bc
       0.078423396 -0.05473045 -0.00045030398 -0.011126407
000130 31 1c 93 3c b0 72 f1 ba 44 b2 94 bd db e0 a3 3d
       0.017957779 -0.001842102 -0.07260564 0.08001872
000140 ce f4 2c 3c 6d b2 6f bd a7 15 5e 3d f4 0b f5 bb
       0.010556413 -0.05851977 0.054219868 -0.0074782316
000150 27 fe 13 bc d7 3a 14 3c 9e ef 6b 3d b3 17 01 bd
       -0.009032763 0.009047232 0.057601564 -0.031516742
000160 15 23 84 3d 28 13 bc 3d a7 a2 00 3c aa be 7a bd
       0.06452004 0.09183341 0.007851279 -0.061216988
000170 d4 a9 aa bd 93 7e 06 3d b7 a0 45 3d bd 52 41 bd
       -0.083331734 0.032835554 0.048248973 -0.047198046
000180 11 fe 23 bd 9a 08 31 bb bc 11 15 bd 09 cb 5e 3d
       -0.04003722 -0.0027013184 -0.036393866 0.05439285
000190 09 b8 03 bd e8 fc 88 bd d5 3c 97 bd af 3c ae bb
       -0.03215793 -0.06688863 -0.0738465 -0.0053172926
0001a0 04 de dc bc f5 98 17 3d a8 06 93 3c 41 5b 99 bc
       -0.026961334 0.037011106 0.01794751 -0.018720271
0001b0 9a ae 1f 3d 86 2d b8 bc 85 c0 8e bd 8f 43 4a bd
       0.038984872 -0.022482645 -0.06970314 -0.049380835
0001c0 63 ab 3a 3d 6c d7 82 bd 6d 38 4b 3c cc b4 af ba
       0.045573603 -0.06388745 0.01240359 -0.0013405322
0001d0 30 e3 3a 3d 5c cb 9f bd 54 14 ad 3c 83 96 4b bd
       0.04562682 -0.078024596 0.021127857 -0.049704086
0001e0 d7 91 87 3d d8 36 83 bd c9 a8 2e bd 10 af 9d 3c
       0.066196136 -0.06406945 -0.042641435 0.019248515
0001f0 70 49 b0 bb a6 9c ff bc 3c 59 45 bc fb 4f ad 3c
       -0.005379848 -0.031202625 -0.012045201 0.021156302
000200 a3 c3 0c bd b6 a4 ae 3d a7 c4 6c 3d a5 71 78 bd
       -0.03436626 0.0852751 0.05780473 -0.060655255
000210 a0 a8 9b bd b5 40 87 bd 98 d8 16 3d 3a ac fe 3c
       -0.07600522 -0.06604139 0.036827654 0.031087983
000220 56 85 9e 3c 4c 81 99 bd ce 3a 71 bd fe 73 80 3d
       0.019350689 -0.074953645 -0.05889397 0.06272124
000230 80 e7 22 bd ba 8b 90 bd 1f d7 fd bb 10 ff 69 3d
       -0.039771557 -0.07057901 -0.0077465917 0.057128012
000240 98 e3 7d 3c f2 8e 06 3d a9 b2 99 3d 90 b8 dc bb
       0.015496157 0.032851167 0.0750478 -0.0067358688
000250 58 1f 02 bc de 7c 84 bd 72 7c 77 3d 96 68 4f 3d
       -0.007942043 -0.06469129 0.060421415 0.05063685
000260 2b 36 85 3d 98 f7 63 bd 04 2a 8d bd 16 a9 0d 3d
       0.06504472 -0.055656046 -0.068927795 0.03458508
000270 60 c2 98 bc 1c 2e 8d bc e0 e9 55 bc d6 b7 21 bd
       -0.018647373 -0.0172339 -0.013056248 -0.03948196
000280 f6 b4 40 bd fe b1 3c 3d 32 36 a5 bd c8 ee 66 bd
       -0.047047578 0.046068184 -0.080669776 -0.056380063
000290 f6 67 7d bd a0 4c 8f bd 36 6d cb bc 20 08 76 bb
       -0.061866723 -0.06997037 -0.02483235 -0.0037541464
0002a0 fb e7 17 bd a6 53 c9 bc d9 60 a3 3d c2 d3 17 3d
       -0.03708647 -0.02457602 0.079774566 0.037067182
0002b0 18 a4 3e bc 7a e4 18 3d 3c 38 a6 3c b2 ee 3c 3d
       -0.011635803 0.037327267 0.020290487 0.046126075
0002c0 e2 f6 32 3d fe ea 4a bd 46 92 52 bd 08 ac 42 3c
       0.043692477 -0.049540512 -0.05140903 0.011881836
0002d0 36 9e 0c bd 5f c8 81 3d b8 0f 9a bd 1e 8c 65 bd
       -0.03433057 0.06337046 -0.07522529 -0.05604183
0002e0 4f e4 8e 3d 26 15 3d 3d 1c f6 92 3c 36 a1 7c 3d
       0.0697714 0.046162747 0.01793962 0.06167718
0002f0 c0 a4 77 bd 00 49 da bc 0c e2 86 bc 60 00 1b bb
       -0.060459852 -0.026646137 -0.01646521 -0.0023651347
000300 70 1e 15 3d 58 4a 2f 3c 80 37 57 3c 90 11 74 bd
       0.03640598 0.010698877 0.013135791 -0.05958706
000310 60 f3 d5 3c dc b6 c1 3c 73 ab 59 bd 20 06 24 bd
       0.026117027 0.023646764 -0.053142022 -0.040044904
000320 ea 2d 6e 3d e8 96 9c bd 65 8a 9f 3d 86 28 45 3d
       0.058149256 -0.076459706 0.077900685 0.04813435
000330 20 af e8 bc 4e 39 35 bd f6 66 4e 3d a8 6d 5b bc
       -0.028403819 -0.044244103 0.05039116 -0.013392843
000340 c0 f3 c5 ba e8 6c 45 bc 00 70 8f b8 40 9c f1 3c
       -0.001510255 -0.012049891 -6.839633e-05 0.029493451
000350 00 df 99 bb ae d8 0f bd a6 15 a3 bd 68 fd 3c bd
       -0.004695773 -0.03511875 -0.079631135 -0.046140105
000360 65 ad a1 3d b0 f4 97 bb db b0 79 bd 5b fe 19 bd
       0.078944005 -0.0046373233 -0.06095968 -0.037596088
000370 a0 5a 57 bd b8 4b 1d 3c db c2 88 3d 29 cd 8d 3d
       -0.05257666 0.009600572 0.06677791 0.06923897
000380 6c 91 f9 3c 70 26 12 3d 68 e2 27 3d b1 9c 8d 3d
       0.03046485 0.035681188 0.040987402 0.06914652
000390 1b 26 96 3d c2 87 1c 3d 5c bc 93 bc 54 d5 da 3c
       0.07331487 0.038215406 -0.018034153 0.02671305
0003a0 8a 9c 30 3d 48 cd 13 3c 93 cf 4e bd 62 e6 59 3d
       0.043118037 0.009021111 -0.050490927 0.053198226
0003b0 6b 06 04 bd f0 4b 8c 3b d8 ed a8 bd e6 8a 19 3d
       -0.032232683 0.0042815134 -0.0824849 0.03748598
0003c0 96 71 df bc d8 6b 18 3d d6 c0 18 3d 2b 28 15 bd
       -0.027275842 0.037212223 0.037293278 -0.03641526
0003d0 cd 03 8e 3d 00 9c cd 38 f8 c2 10 3d 89 14 a3 3d
       0.06934319 9.804219e-05 0.035342187 0.07962901
0003e0 50 f0 93 bb e3 45 61 bd ab 11 58 bd 80 95 b5 bb
       -0.0045147315 -0.05499829 -0.052751224 -0.0055415034
0003f0 6a 2b 33 3d 66 b2 2e bd 0a 42 5c 3d 78 0c 6d bc
       0.043742575 -0.042650603 0.053773917 -0.014468305

enc2.0.bias f4 [32]
000000 62 df 16 3c 90 b8 9b bc 13 c7 22 bd 78 87 82 3d
       0.009208532 -0.019008905 -0.039740633 0.06373495
000010 83 d9 33 3d 99 4b d6 3c 85 4d 84 3d ea bd 83 3c
       0.043908607 0.026159095 0.06460098 0.016081769
000020 cf e7 75 bd 4b cc 5e 3c 43 e3 a2 3d fc 70 7e 3d
       -0.060035523 0.013598512 0.07953503 0.06211947
000030 21 89 8e bd 7d c6 57 3d 66 dd 6e 3c a8 41 8b 3b
       -0.06959749 0.052679528 0.014579153 0.00424977
000040 8c 5a 1a bb c0 6a 82 3a c5 06 f1 bc 55 89 36 bb
       -0.0023552505 0.0009950027 -0.029422173 -0.0027852852
000050 07 21 7e bd f9 87 75 3d 22 21 1a bd 68 92 1d 3b
       -0.062043216 0.059944127 -0.037629254 0.0024043564
000060 2f 28 93 bd b3 ce d9 bc 7c 6e aa 3a 24 91 8d 3c
       -0.07185399 -0.02658782 0.0013002898 0.017281123
000070 90 b0 b0 bb 7e 5f 5a bd b1 52 a7 bc 1a b7 ce 3b
       -0.0053921416 -0.053313725 -0.020425173 0.0063084485

enc2.2.weight f4 [32, 32, 3, 3]
000000 b5 24 2e bd 3e 0b 43 bd f0 96 7e 3c c3 e0 93 3c
       -0.042515475 -0.047618143 0.015538916 0.01805151
000010 cc 99 2a bc d9 c1 20 bc 76 2e 04 bd e3 c8 43 bd
       -0.010412645 -0.009811842 -0.03227087 -0.047799002
000020 b9 df 92 bc 0b a9 fb bc a1 cc 22 3d 3a 8b 93 bc
       -0.017928945 -0.030720254 0.03974593 -0.018010724
000030 de c4 f2 3c 80 89 43 bc a8 94 de bb 78 32 bb bb
       0.02963489 -0.011934638 -0.0067926235 -0.0057128035
000040 90 87 a9 bb 89 60 34 3d 33 c5 fa bb 9c 08 47 bd
       -0.005173631 0.044037376 -0.0076529025 -0.048592195
000050 1a 3b b8 bc f9 7a 23 3d 83 23 c2 bc bf d2 38 3d
       -0.02248912 0.039912198 -0.023698574 0.045122858
000060 ae 0b 5d bd 6e 82 80 bc 22 47 26 bd ad 73 41 bd
       -0.053966217 -0.015687194 -0.04059518 -0.047229458
000070 d6 b9 35 3a 10 24 ba 3c 1e 8e 02 bd fe 85 3a 3c
       0.0006932294 0.022722274 -0.031873815 0.011384485
000080 f9 df ab 3c 82 02 62 bd f7 93 4c bd 88 1f 2c 3d
       0.020980822 -0.055178173 -0.049945798 0.042022258
000090 9a 8a 80 3c af c6 41 3c 78 04 59 3d 4b ae 33 3d
       0.01569109 0.011827155 0.052982777 0.04386739
0000a0 f4 62 ba 3b 43 b7 1b 3d 1f 9e c6 3c 40 aa a8 3c
       0.0056880657 0.03801657 0.02424532 0.020588994
0000b0 d6 d5 00 3d 3e 67 0e bd 10 ba 2d bd 04 4a 1c 3c
       0.03145393 -0.03476643 -0.04241377 0.009539131
0000c0 e1 21 02 3d 6e da c9 3c 7f 22 68 3d 7c 6e 5b bd
       0.03177059 0.024640288 0.056673523 -0.053572163
0000d0 cd 28 1c 3d 99 3c 57 bd 56 08 bc bc 58 94 6c bd
       0.03812485 -0.052548025 -0.022953194 -0.05775866
0000e0 4d 4b 2c bd 20 ef 0b bd 6f 58 59 bd ea d7 81 3c
       -0.042064 -0.034163594 -0.053062852 0.015850026
0000f0 91 81 c4 bc 50 66 4e bd d7 ca 0c 3d 2c 15 4f bd
       -0.023987563 -0.05039054 0.03437313 -0.0505573
000100 14 25 f5 bc bc ce f9 3c a8 42 38 bd 0e 93 36 3d
       -0.029924907 0.030494086 -0.044985443 0.044573836
000110 69 5f 0a 3d 32 0b 4b 3b b9 aa 09 3c 7a 94 9b 3c
       0.033782396 0.0030982015 0.00840252 0.018991698
000120 14 d1 4a 3b b8 c9 50 3b 96 62 15 bd 11 21 e7 bb
       0.0030947374 0.0031858515 -0.036470972 -0.0070535024
000130 9c 8b bc 3c 8b a3 02 bd f1 a8 25 3c c7 a0 09 3d
       0.02301579 -0.031894248 0.01011108 0.033600595
000140 cf fb bb bc e5 d5 f7 3c 4b 71 2e 3d 8c 3b 0c bd
       -0.02294722 0.03025336 0.042588513 -0.034236476
000150 cc 54 da 3c 18 f2 c7 3c 6a 7e 50 bd 52 b7 2d 3d
       0.026651762 0.024407431 -0.050901808 0.042411156
000160 6a 21 a4 bc e2 88 00 3c c8 79 24 3d c1 65 02 bd
       -0.020035464 0.007845135 0.040155202 -0.03183532
000170 d2 6d 1d 3d 68 b9 9b bc 5d 2c 25 bd f7 a6 16 3d
       0.03843481 -0.019009307 -0.04032551 0.036780324
000180 c7 45 32 3d c9 5b 51 bc 04 b2 be 3c 48 f8 1a 3d
       0.043523576 -0.012778231 0.023278244 0.037834436
000190 7b 50 66 3d f5 11 ec 3c 02 96 34 3d 20 d5 cd 3b
       0.056229096 0.028817156 0.04408837 0.00628151
0001a0 b1 f6 3b bc 2c 52 82 bc 7f f2 26 bb 6b 57 0b 3d
       -0.01147239 -0.015908323 -0.0025474129 0.034018915
0001b0 40 c0 51 ba 63 0f e9 bc 2e 7c 3d bd a9 ae 77 3d
       -0.0008001365 -0.02844972 -0.046261005 0.060469303
0001c0 91 9a 2b 3d 81 a7 54 3d 29 57 36 3d ec ea 04 3d
       0.041895453 0.051917557 0.044516716 0.0324506
0001d0 80 3f 2b bd 39 96 e3 3c c1 77 6c bd 67 2a 69 3d
       -0.041808605 0.027781593 -0.057731394 0.056925204
0001e0 ae 9b 3a bd 1a af 59 bc 8e a3 66 bd 53 47 87 bc
       -0.045558624 -0.013286376 -0.05630832 -0.016513502
0001f0 49 f9 23 bd dc 6a f8 bc 57 60 6d 3c 89 3f 3b bd
       -0.04003266 -0.030324392 0.014488301 -0.04571489
000200 f1 a5 7f 3a 16 34 40 3d 50 2d 84 38 e0 6c 14 3c
       0.0009752205 0.046924673 6.3026906e-05 0.009059161
000210 7a 53 45 3c 26 e1 57 3d a4 0c 75 bd 7c 67 c1 bc
       0.012043828 0.052704953 -0.05982651 -0.023608916
000220 90 d3 12 bd 74 8b 36 3d 18 43 e1 3c b6 db 02 bc
       -0.035846293 0.044566587 0.027497813 -0.0079869535
000230 08 53 71 bd 94 60 06 3d 4d d2 67 bc cf 42 2b 3d
       -0.058917075 0.032806948 -0.014149261 0.04181176
000240 a4 1e fc 3c 36 4a 3a 3d 92 91 50 3d 68 3b 52 3d
       0.03077633 0.04548093 0.050920077 0.051326185
000250 b1 16 e8 3c 82 6f db 3c 9a fa 17 3d 46 53 62 3d
       0.028331133 0.02678657 0.037104227 0.055255197
000260 84 07 63 3d d0 b4 2b bd 27 c4 51 3d 09 9a 29 3d
       0.05542709 -0.041920483 0.051212456 0.041406665
000270 5b 17 0b 3d 4c 94 1d bd 83 17 4a bd 78 2f 0d bc
       0.03395782 -0.038471505 -0.04933883 -0.008617274
000280 a7 07 01 3d ba 2d 12 bd 6b 69 0b 3d 3e 5b 3e 3c
       0.03150144 -0.03568814 0.03403608 0.0116184335
000290 2a d3 6d 3d bf 85 4c 3d 9e 08 ce bb b4 8e 51 bd
       0.05806271 0.049932238 -0.0062876483 -0.051161483
0002a0 ef 74 5c 3d 0b 94 5a 3d 54 62 4d 3c a7 93 17 bd
       0.053822454 0.05336384 0.01253565 -0.037006047
0002b0 3a 3a d7 3c 04 42 4e bc 34 2b 6d 3d c2 cd 5d 3d
       0.026272882 -0.012588982 0.05790253 0.054151304
0002c0 b7 bd 8f 3c c0 84 47 bd 1a b0 50 3d 5a 35 5e ba
       0.017546518 -0.048710585 0.050949194 -0.0008476578
0002d0 06 ae b3 bc 28 59 0a 3d de d9 69 3d 91 a1 c7 ba
       -0.021933567 0.033776432 0.05709254 -0.0015230646
0002e0 e8 ca c3 3c 33 bf 1c bd c0 57 f7 3b 67 e0 aa 3c
       0.023900464 -0.03826828 0.0075483024 0.020858957
0002f0 e6 83 b8 3c 8b c0 2c 3d 0d 2b 5f bb 8e fc 1c bd
       0.022523832 0.04217581 -0.003405276 -0.038326792
000300 60 fa bc bb d2 c6 20 3c 5e db 35 3d 25 da 6e bd
       -0.0057671517 0.009813027 0.044398658 -0.058313508
000310 0a c0 ae bc dd 36 0d bd 93 45 64 3d 94 76 9d bb
       -0.021331806 -0.03447615 0.055730414 -0.0048053954
000320 fb 69 61 3d 8a 6f 17 3c b3 c6 81 3c c2 fb 25 3d
       0.05503271 0.009242902 0.015841817 0.040523298
000330 92 b4 46 3d 1f e2 cb 3c e0 e9 39 3b d5 60 42 3c
       0.04851205 0.024888096 0.002836816 0.011863907
000340 1a 2f 94 3b 4e e1 3e 3d 85 18 ed bc 60 22 96 bc
       0.0045222165 0.046601586 -0.028942356 -0.018326938
000350 fd 51 1b 3d ea 12 5b bd 14 c6 11 3c dc 8d 07 3d
       0.037919987 -0.053484835 0.008897323 0.033094272
000360 ea 79 f5 3c 69 d4 57 bd 08 b3 05 bc b7 7c 64 3d
       0.02996536 -0.052692804 -0.00816036 0.055783
000370 b4 0f 5b 3c 36 53 8d 3c 82 31 bb 3c 24 94 09 bd
       0.013370443 0.017251592 0.022850756 -0.033588544
000380 40 85 d3 ba 4b 00 a5 3c 4a 83 61 3c 46 fc c8 bc
       -0.0016137734 0.020141741 0.013764212 -0.024534356
000390 53 84 95 ba 90 b8 65 3d d1 f1 af bc 2f 88 a5 bc
       -0.0011407234 0.056084216 -0.021477612 -0.020206539
0003a0 4d 16 3a bd 7a b0 65 3d 38 f2 30 bd 18 fd b3 3c
       -0.045431424 0.056076504 -0.043199748 0.02197127
0003b0 58 08 51 bb 6b 18 0b bd 46 71 65 3c 14 60 ba bc
       -0.0031895842 -0.033958834 0.014004057 -0.022750892
0003c0 0d d5 51 3c 56 03 18 bd 8c e8 32 3d 48 00 91 bb
       0.012807143 -0.037112556 0.043678805 -0.0044250824
0003d0 d9 fe 01 3d fc 54 62 bc 17 3a 25 bd ac 7e 4b 3c
       0.031737182 -0.013814207 -0.040338602 0.012420338
0003e0 e6 f3 da 3c e0 3c 8c bb 78 14 90 bc 04 ab 3b bd
       0.026727628 -0.004279718 -0.017587885 -0.04581739
0003f0 80 74 08 bb 4e 8e 39 bd b8 6d 6f bc ce ac 84 3c
       -0.0020821393 -0.045301728 -0.014613561 0.016195681

enc2.2.bias f4 [32]
000000 8b cd 3c 3b 80 65 3c bd 5b e1 1d 3d 2e f8 1c bc
       0.0028809037 -0.045995235 0.038544994 -0.009580655
000010 b6 0e dd bc 34 75 31 bc 63 79 93 3c 8d a8 8c bd
       -0.026984554 -0.010831166 0.018002218 -0.06868086
000020 26 75 2e 3b de 1f 1a 3d ba 87 d8 bc 47 b8 e3 ba
       0.002662012 0.037628047 -0.026431907 -0.0017373645
000030 00 7c 68 3d 2d c3 e4 3c ce 41 7a 3d d0 78 49 3d
       0.05675888 0.027925098 0.061097912 0.04918748
000040 5a ab ee 3c 50 f7 bc bc fd db 9c 3c 86 4f fc 3c
       0.029134441 -0.023067147 0.019147867 0.030799638
000050 6e 31 86 3d ff 5c 66 bd 15 53 0d bd a3 4a 64 3d
       0.06552397 -0.05624103 -0.03450306 0.05573524
000060 d8 e7 33 bd a3 a6 32 bd c2 b4 14 bd 1d fa 4c 3d
       -0.043922275 -0.04361595 -0.036305197 0.050043214
000070 51 ea d7 3b b5 53 ed 3c b0 f8 1b bd c1 54 cc 3c
       0.006589212 0.028970579 -0.038078964 0.024942758

bottleneck.0.weight f4 [64, 32, 3, 3]
000000 7c 27 e1 bc a5 12 05 3d 44 fb 49 3c 0c b1 52 bc
       -0.027484648 0.032488484 0.012327973 -0.012859594
000010 c6 93 27 bd a8 94 9f 3b 68 10 08 bc 80 1a 4b ba
       -0.040912412 0.004870016 -0.008304693 -0.0007747784
000020 40 ea 4c bd 2d 59 f7 bc ea bf e9 bc 29 8e 1d 3d
       -0.050028086 -0.03019389 -0.028533895 0.038465653
000030 34 ce 55 bd 68 cd cd bc c2 38 d6 3c 4a 6b d2 bc
       -0.052198604 -0.02512236 0.026150111 -0.025685925
000040 18 86 46 bd 09 af 61 3d a2 96 c4 3c a1 ff 00 3d
       -0.048467726 0.055098567 0.023997609 0.031493787
000050 61 83 20 3d 48 d6 8d bb 06 ec ed 3c 8a 8f 89 3c
       0.039187793 -0.004328523 0.029043209 0.016792078
000060 05 ad 5e 3d fa df cc 3c 7f fc 5f 3d d6 d1 58 bd
       0.054364223 0.025009144 0.05468416 -0.05293449
000070 f8 c1 d1 bb ca cd 5a bd 96 0f fc 3c fa dc 41 bd
       -0.0064012967 -0.053418912 0.03076915 -0.04732988
000080 40 80 c5 ba 2f 4a 41 3d 80 6e 96 3a 46 5c d0 bc
       -0.0015068129 0.047189888 0.0011477023 -0.025434624
000090 0f 86 45 3d 00 87 58 3a 68 3d 96 3b 0f f5 20 3d
       0.04822355 0.00082598627 0.004584957 0.039296206
0000a0 9b 5b 56 3d 14 de 1b 3c 7d f9 34 bd f6 fa 31 bd
       0.052333456 0.009513397 -0.044183243 -0.043452226
0000b0 78 d7 bc 3b 00 5f 22 3a 50 2c ed bb f7 43 5a 3d
       0.0057629906 0.00061939657 -0.0072379485 0.053287473
0000c0 cc f5 85 bc 6e d4 56 bd 39 ea 2e 3d f9 4b 14 3d
       -0.016352557 -0.052448682 0.04270384 0.036205266
0000d0 a7 f0 39 3d 20 fe 13 bd 26 58 f8 bc 32 cc 34 bd
       0.04539552 -0.036131024 -0.03031547 -0.04414005
0000e0 37 f4 36 3d a0 32 38 bc 22 48 12 bd 80 30 ea 39
       0.044666495 -0.011242539 -0.035713322 0.00044668093
0000f0 b6 6e 88 bc fb 0a 12 3d e4 7e 7c 3c ea 76 97 3c
       -0.016654354 0.035655003 0.015411112 0.01848932
000100 b7 e7 46 3d c7 d0 00 3d 68 d6 50 bc ca 2d c9 3c
       0.048560824 0.031449106 -0.012746431 0.024557967
000110 e8 be b5 bb 0a 9f 6c bd 28 2f af bc da 57 8a 3c
       -0.0055464394 -0.05776886 -0.02138479 0.016887594
000120 98 7e 9d bb b2 8a b8 3c 3e b4 cb 3c f4 ae 55 3c
       -0.004806351 0.022527073 0.02486622 0.0130422
000130 b0 f7 0f bb 57 dc ee bc a5 d0 66 3d 4b 45 56 bd
       -0.0021967702 -0.0291578 0.056351323 -0.052312177
000140 23 7e 29 3d 88 c9 35 bd a0 a7 a2 ba ea 83 9b 3c
       0.04138006 -0.04438165 -0.0012409575 0.0189838
000150 98 e2 84 3b 93 d3 07 3d 84 df 62 3c d8 f2 98 3b
       0.0040553324 0.033160757 0.013847236 0.004667621
000160 80 30 4f ba 7e 71 ef 3c d6 80 4a bd 88 db f4 3b
       -0.00079036504 0.029228922 -0.049439274 0.007472459
000170 56 01 58 bd 24 80 d3 bc 0d 56 27 3d d0 91 6b bc
       -0.05273565 -0.025817938 0.04085355 -0.014378026
000180 c4 7d 15 3c f5 81 22 3d a1 31 46 bd a1 cc f2 bc
       0.009124223 0.039674718 -0.048387174 -0.02963859
000190 48 3c f8 bb ea 2c f7 3c 31 92 3a bd 10 41 8c bb
       -0.0075755455 0.030172784 -0.045549575 -0.004280217
0001a0 3a f8 22 bd 9c fd 5e bd ad df 52 bd c8 74 3b bd
       -0.03978751 -0.05444108 -0.051482845 -0.04576567
0001b0 04 58 20 3c ec 56 19 bd c9 f2 11 bd 9b d7 2d 3d
       0.00978661 -0.03743641 -0.03563193 0.042441946
0001c0 47 5e 07 3d 18 c0 44 bd be c2 af 3c 5d 94 65 3d
       0.033048894 -0.048034757 0.021455165 0.056049693
0001d0 c0 bc 9e ba d4 7d 64 3c 8c e7 3f bc f8 42 f7 3b
       -0.0012110695 0.013946015 -0.01171292 0.007545825
0001e0 88 44 e5 3b 50 6b 6d bd b8 7f c1 bc a4 ea 5e 3c
       0.006996695 -0.05796367 -0.023620471 0.013605747
0001f0 80 10 ef 39 97 57 5e 3d 60 e5 9b bc d0 92 6e bb
       0.00045597926 0.05428275 -0.019030273 -0.0036403425
000200 0f b0 4c bd b9 4a 0a bd 60 42 c3 ba d9 0c 5d 3d
       -0.04997259 -0.033762667 -0.0014897101 0.05396733
000210 5c 1f 63 bd 20 b9 b4 bb 51 4a 2b 3d 0b a9 01 bd
       -0.05544983 -0.0055152327 0.04181892 -0.031655353
000220 61 25 53 3d bb 8c 4f 3d 68 95 c8 3b a3 fc 2d 3d
       0.05154932 0.05067132 0.0061213262 0.04247726
000230 e0 8a e1 bc d2 91 e0 3c a7 4a 21 3d 82 b2 8b 3c
       -0.027532041 0.027413283 0.039377835 0.017052893
000240 26 39 8f 3c 53 e3 25 3d 3a 41 e6 3c 72 e2 66 bd
       0.017483305 0.040499996 0.028107274 -0.0563683
000250 38 6e b5 3b 43 2a 6c 3d a8 ad 80 bc 9c 6b 00 bc
       0.0055368207 0.05765749 -0.015707806 -0.007838156
000260 66 d1 b8 3c 48 f4 b4 bb 2d 74 47 3d ab 2d 10 3d
       0.022560786 -0.0055222847 0.04869478 0.035199802
000270 90 f6 42 bb 42 e1 f6 3c 06 2b 05 bd d7 fe 15 3d
       -0.0029749013 0.030136708 -0.032511733 0.036619987
000280 df f0 21 3d d5 9b 21 3d 52 d1 d5 3c fe 45 18 bd
       0.039536353 0.039455254 0.026100788 -0.037176125
000290 22 e9 c1 3c b0 62 27 bb 18 eb 90 3b 06 85 b2 3c
       0.023670737 -0.0025541 0.0044225566 0.021791946
0002a0 a5 3b 2e 3d 59 f5 52 bd 38 96 68 bc ac 6c 51 3c
       0.04253735 -0.051503513 -0.014195971 0.012782257
0002b0 6b 20 0c bd 09 1d 57 bd ea 0b ad 3c 1a 52 db bc
       -0.034210604 -0.052517924 0.021123845 -0.026772548
0002c0 94 85 33 bd 69 67 47 bd 14 bd 35 bd ac f1 08 3c
       -0.043828562 -0.048682604 -0.044369772 0.0083584
0002d0 42 33 e5 3c d5 04 34 3d ca c1 57 bd 36 1a 0c bd
       0.027978543 0.04394992 -0.052675046 -0.034204684
0002e0 93 f7 5e bd d2 cb d5 3c 0c 5f 5f bd df 59 71 bd
       -0.054435324 0.026098166 -0.054534003 -0.0589236
0002f0 06 b8 8b bc 52 fd 07 bd 08 24 04 bd ea 8d d4 3c
       -0.017055523 -0.03320057 -0.032260925 0.025946576
000300 58 42 e0 3b 18 48 0b bc 79 5b 39 3d 38 aa 46 bd
       0.0068438463 -0.008501075 0.04525325 -0.048502177
000310 4a 2b 91 3c f7 e5 2d 3d 0b b0 56 bd 95 d6 4c bd
       0.017720837 0.04245564 -0.05241398 -0.05000933
000320 e2 08 ac bc 90 e5 77 3b d6 18 ca bc c1 14 21 3d
       -0.02100033 0.003782604 -0.024670046 0.039326433
000330 c3 a7 2e 3d 20 1e 3c bd 08 19 be bc 42 ae 05 bd
       0.04264046 -0.045927167 -0.023205295 -0.03263689
000340 11 c0 48 3d 22 24 f3 3c 6e 0e 95 3c 5c 40 03 bc
       0.049011294 0.029680315 0.018195357 -0.00801095
000350 db 92 3b bd 50 1c 5e 3b 9d bc 25 3d 33 0f 3e 3d
       -0.04579435 0.0033891387 0.04046308 0.046401214
000360 d0 99 2f bc 10 9c 99 bc 30 57 88 bc ce b7 98 bc
       -0.010717824 -0.018751174 -0.016643137 -0.018642332
000370 2d 5f 54 3d 62 d2 14 bd 14 4c 2c bd 68 ef 12 bc
       0.05184858 -0.03633345 -0.04206474 -0.008968212
000380 84 76 0f bd d0 be 4a bb 0c ad 42 3c e2 95 c0 3c
       -0.035025135 -0.0030936487 0.011882078 0.02350897
000390 da 48 86 3c 4f c2 43 3d 37 f7 48 3d 97 e9 3b 3d
       0.01639216 0.04779273 0.049063887 0.045877066
0003a0 b2 af 10 bd f8 61 e1 bb 27 5b 37 3d 25 55 03 bd
       -0.035323806 -0.006878134 0.044764664 -0.032063622
0003b0 1a ac a5 bc d2 6e 8e 3c 16 ff ab bc a0 eb 9c bb
       -0.020223666 0.017386828 -0.020995658 -0.004788831
0003c0 c7 f8 30 3d 74 0b 48 3c ac 08 05 bc 20 e6 15 3b
       0.043206003 0.012209762 -0.008119743 0.002287276
0003d0 7c 3a 24 bd 24 03 4f 3c 18 bb bd bb 50 c3 c5 bc
       -0.040094838 0.012635026 -0.0057901256 -0.024140984
0003e0 cd 90 5b 3d 30 29 11 bd 30 d4 50 bd e4 26 3e bd
       0.05360489 -0.03543967 -0.050983608 -0.046423808
0003f0 4c ae 4e bc 84 f8 25 bd 36 cb b9 3c a8 32 1f bc
       -0.012614798 -0.040520206 0.022679906 -0.009716667

bottleneck.0.bias f4 [64]
000000 ad f8 ff bc 23 20 bd b9 5b db 00 bd 25 c0 77 3d
       -0.031246508 -0.00036072833 -0.031459194 0.060485978
000010 08 4d 48 3d 11 7c d7 3c a1 ac 03 bc 0a d0 3a bd
       0.048901588 0.026304277 -0.008036763 -0.045608558
000020 cc 9d df 3c 10 d6 d0 3c 39 58 43 bd be 1a 8d 3c
       0.027296923 0.025492698 -0.047691558 0.017224666
000030 b1 ef 47 bd 08 2c cd 3b f1 e4 5f 3c 4a 82 19 3d
       -0.048812572 0.0062613524 0.013665424 0.03747777
000040 48 92 2c bd b1 dc 72 3c 71 6d 2f 3d 1a f6 c8 3c
       -0.042131692 0.014823125 0.04282898 0.024531413
000050 53 b6 f6 3c f4 08 69 bb b0 68 36 bd 3a a3 80 3c
       0.030116236 -0.0035558315 -0.04453343 0.015702832
000060 00 85 3d 3d 55 ae bb 3c 34 78 69 bc 61 ca e3 3c
       0.046269417 0.022910276 -0.01424985 0.027806463
000070 2a f2 04 3b a6 b4 f5 3b 8e 5c 2b 3d 30 52 b1 3c
       0.0020285943 0.0074983416 0.041836314 0.021645635
000080 b9 6b d8 bc a4 99 9e 3c 16 9c ed bb 4d 3e 27 3c
       -0.026418554 0.019360371 -0.007251273 0.010207725
000090 a0 36 8c bc 75 c0 55 3c 29 e1 b4 bc 0e 3b b4 bc
       -0.017115891 0.013046374 -0.022080021 -0.022000816
0000a0 32 0f 00 bd a1 31 45 3c d2 b4 06 bc 0c 00 04 bd
       -0.03126449 0.012035758 -0.008221822 -0.032226607
0000b0 db 8d 74 bc a3 a4 73 3d 92 4a f6 bc 37 23 67 bd
       -0.014926399 0.05948318 -0.030064855 -0.056430068
0000c0 21 79 49 bd a2 94 af ba ba 48 06 3c af 10 70 3d
       -0.049187783 -0.0013395736 0.00819605 0.05860966
0000d0 58 56 40 3d 68 df ac bb 13 e9 59 bd ec 3b 35 3d
       0.046957344 -0.0052756555 -0.053200793 0.0442466
0000e0 72 8c 21 3c 2d 2b 58 bc 8a 2a db 3c 70 47 c1 bc
       0.009860145 -0.013193888 0.026753683 -0.023593634
0000f0 e1 d0 df 3c 7b 2e e4 3c b9 c2 b2 3c 99 71 e6 3c
       0.02732128 0.027854195 0.021821367 0.02813034

bottleneck.2.weight f4 [64, 64, 3, 3]
000000 a0 ab f2 bb 26 f3 4a bc db c9 22 bd 4c b9 1c 3c
       -0.007405713 -0.012387073 -0.039743286 0.009565663
000010 af 7a 01 3d c0 09 cb 3b 44 a9 67 3c e0 1c 98 3c
       0.03161114 0.0061962306 0.014139477 0.018568456
000020 20 ef dd 3a 0c 20 2c bc 6c 9b 6e 3c 06 c0 ea 3c
       0.0016932227 -0.010505687 0.014563423 0.028656017
000030 40 b5 33 3b f1 2c 25 3d 9d c3 0d 3d e8 9d 00 bd
       0.0027421266 0.040326063 0.03461038 -0.03140059
000040 c6 31 ed 3c 39 4a 1e 3d 8a 5c cf bc d9 86 bc 3c
       0.028954398 0.038645003 -0.02531268 0.02301352
000050 a4 e5 ad bb 4b 88 eb 3c 42 4c 1e 3d 8c 57 03 bd
       -0.0053069163 0.028751513 0.038646944 -0.032065913
000060 d2 07 1d 3b dc 8f db 3c 47 90 10 3d 40 ef 86 bc
       0.002396096 0.026801996 0.035293844 -0.016471505
000070 03 95 3e 3b fc de ed 3b 0e 1b f4 3c be e4 54 bc
       0.0029080517 0.007259248 0.029798057 -0.0129939895
000080 10 8c d6 bb 1c 3a 0b 3c 01 a0 86 bc b7 ff a0 bc
       -0.0065474585 0.008497741 -0.016433718 -0.019653184
000090 4c 70 f6 bb 1b 03 9c bc 9f d4 07 3d 38 81 15 bc
       -0.007520711 -0.01904445 0.033161756 -0.009125046
0000a0 c9 d9 09 bd 96 de 42 3b 7e 29 be 3b a6 ce 8d 3c
       -0.03365496 0.0029734722 0.005803286 0.017310452
0000b0 88 db 93 bc d5 56 4f 3b ca 50 d4 3c 90 58 92 3c
       -0.018049017 0.003163745 0.02591743 0.017864496
0000c0 6b 48 b4 3b e9 fb 14 bd be 84 18 bd 49 8a 32 bc
       0.005501797 -0.036373053 -0.037235968 -0.010897228
0000d0 8c 1c 2d bd 95 61 19 bd 89 66 9c 3c 3c 25 c6 3c
       -0.042263553 -0.037446577 0.019091861 0.024187677
0000e0 f3 b7 e9 bc da 5d 8f 3b 97 7e 2b bd 71 9d 91 3c
       -0.028530097 0.0043752016 -0.041868772 0.01777527
0000f0 4f 8e cb 3c 0a 32 26 bd 3d df 25 bd b2 e9 ba 3c
       0.024848131 -0.040575065 -0.0404961 0.022816513
000100 c1 f8 13 3c 2e 19 05 bd 8a f3 02 bd 2d 7f e3 bb
       0.0090314755 -0.032494716 -0.03197054 -0.006942651
000110 33 f9 f3 bc 67 07 f0 ba 33 a8 1c 3c d4 5e 07 3d
       -0.029781913 -0.0018312753 0.009561586 0.03304942
000120 71 13 8e bc e1 85 bf bc 21 7d ae 3c 0e b8 54 bc
       -0.017343255 -0.023379268 0.0212999 -0.012983335
000130 99 8f d9 3c 78 df fe 3b d2 ac 83 3c 2b 7d 98 3c
       0.02655773 0.0077781044 0.016073618 0.018614372
000140 dd b5 18 3d 7c a4 f4 3c b3 78 ad 3c d4 1a 5c bb
       0.037282813 0.029863589 0.021175718 -0.0033585327
000150 06 b8 01 bc b0 ba 02 3d cc 53 cc 3c 3a 47 22 bc
       -0.00791741 0.03191632 0.024942301 -0.009904677
000160 50 e8 3f bb 92 cf d8 bb 27 41 0e 3d 38 b4 d9 3b
       -0.0029282756 -0.006616541 0.034730103 0.006643798
000170 50 45 0f 3c 02 28 cb bc 1c ac 94 bc 43 6f ce bc
       0.008744553 -0.02479935 -0.018148474 -0.025199538
000180 6b 09 7a 3b bd e2 ef 3b 90 32 42 3b f8 8d 31 bd
       0.0038152586 0.0073207305 0.0029632188 -0.043348283
000190 13 07 44 3c 12 f1 b4 3b a1 da 01 3d ba 84 31 3d
       0.011964577 0.005521902 0.03170264 0.04333947
0001a0 bf cc f7 3b d6 4b d4 bc 21 6e 50 bc d7 78 01 3d
       0.0075622494 -0.025915068 -0.012721569 0.031609382
0001b0 4c fd 0a bd 84 e5 eb bc 8b ba 17 bd e8 ff e1 bb
       -0.03393297 -0.028795965 -0.037043136 -0.0068969615
0001c0 98 34 a8 3c 64 46 07 bc 1d 27 24 3d 43 12 e1 bc
       0.020532891 -0.0082565285 0.040076364 -0.027474528
0001d0 6e 41 a2 3c 0b 04 de 3c 11 90 60 3c ec 34 44 bb
       0.01980659 0.027101537 0.013706223 -0.002993877
0001e0 f0 47 11 3c 0f 74 38 3c a7 44 2b bd 37 01 fb 3b
       0.008867249 0.011258139 -0.04181352 0.007660057
0001f0 95 c5 20 bd 15 27 ec bc f5 ee 97 bc 75 8c 6b 3b
       -0.03925093 -0.02882723 -0.01854656 0.0035941873
000200 0b 4b e3 bb 8e a9 21 3d 47 61 b1 ba 10 7c d8 bc
       -0.006936436 0.03946834 -0.0013533019 -0.026426345
000210 91 c4 33 3c ae 27 d4 3c 00 6a a4 bc 5a c4 1b bd
       0.010972158 0.025897827 -0.020070076 -0.038029052
000220 c4 5b 1d bd 30 b1 39 3c f2 dd 0d 3d 81 57 db bb
       -0.038417593 0.011333749 0.03463549 -0.006693781
000230 62 58 1a bb 86 c2 0c bd 3f 03 60 ba 10 ae 54 3c
       -0.0023551215 -0.0343652 -0.00085454056 0.012980953
000240 f3 40 1a bd c8 1a 96 bb db 16 bf bc 92 db c1 3c
       -0.037659597 -0.0045808293 -0.023326328 0.02366427
000250 65 79 26 3d bc c3 4a bc 70 31 a5 3c 8c bd 21 bd
       0.040643115 -0.012375768 0.020165175 -0.039487407
000260 68 87 d5 bb c2 b8 9a 3c de 8b 1b bd e2 97 95 3c
       -0.006516386 0.018886928 -0.037975185 0.0182609
000270 50 2d 97 3c bc 75 0f bd 4a 64 de 3c 54 fc 63 3c
       0.018454224 -0.03502439 0.02714743 0.01391514
000280 30 4d 28 3c 7c c2 50 bc bd 88 13 3c 84 17 41 3a
       0.010272309 -0.012741681 0.009004769 0.000736587
000290 9a b7 61 3c 19 61 d9 3c 55 f4 14 3d 9a 0c 74 3c
       0.013776684 0.026535558 0.036365826 0.014895583
0002a0 0a f2 68 bc bc 2e d8 bc e9 4d 25 3c 6e ad 8b bc
       -0.014217863 -0.026389472 0.010089376 -0.017050471
0002b0 13 68 00 3d 1c b4 17 3c 00 75 b9 bc 88 ee 99 3c
       0.031349253 0.00925925 -0.022638798 0.018790498
0002c0 d6 72 b1 bc 8f 15 16 bd 0a 2a cc 3c e9 36 08 3d
       -0.021661203 -0.036641654 0.02492239 0.03325549
0002d0 43 96 01 3d 58 9c f2 3b 00 73 02 ba 76 51 56 bc
       0.03163744 0.0074038915 -0.0004976243 -0.013080945
0002e0 0a 28 ad 3c fe b3 c1 bc 83 9e 1a bd d1 1e 1a 3d
       0.021137256 -0.023645397 -0.037748825 0.037627045
0002f0 55 53 0c 3d a6 e5 ec bc ed 3e c5 3c 73 5b e2 3b
       0.03425916 -0.028918099 0.024077857 0.0069078743
000300 02 33 05 bd fd 17 89 3c a7 32 06 3d 3f 2c 9a 3c
       -0.032519348 0.016735071 0.03276315 0.018819926
000310 13 0f 28 bc 73 76 7b 3b 28 31 d9 bc 08 14 f3 3b
       -0.0102575 0.0038370162 -0.026512697 0.0074181594
000320 3c 65 11 bc 40 16 01 bc 1a 68 00 bd 30 5f a6 3c
       -0.008874234 -0.00787884 -0.03134928 0.02030906
000330 bc ed 7a bc 90 20 1d bb 90 08 53 bc 5c d9 74 3c
       -0.015315469 -0.0023975708 -0.012880459 0.014944401
000340 93 99 b5 bc 48 ba 97 bc 14 f2 14 bd 3c 84 30 bc
       -0.022167956 -0.018521443 -0.036363676 -0.010773715
000350 0b da 83 bc b8 ac f5 bb a0 46 81 ba bf 02 1a 3d
       -0.016095182 -0.0074973963 -0.0009862967 0.037600275
000360 3a ff 02 3c e5 6f 72 bc 0f 0f 18 3d 86 ce b2 ba
       0.007995421 -0.014797186 0.037123736 -0.0013641871
000370 bb 4a b2 3c e5 5d 04 3b 6e ad c5 bb d2 6e f3 3b
       0.02176415 0.0020197567 -0.0060326373 0.0074289823
000380 2a 5e be 3a 62 43 6c bc 9c f5 17 bd 8d b6 00 3d
       0.0014523913 -0.014420362 -0.037099466 0.031424094
000390 ab ff 1c 3d c3 7f 19 3c 2e cd b7 3c ba ac 23 bc
       0.03832976 0.00936884 0.022436704 -0.009989912
0003a0 f1 26 c8 3c f3 57 1e bd 30 1b 4e bc 90 e7 05 bb
       0.024432631 -0.038658094 -0.012579724 -0.0020432211
0003b0 e3 10 a5 bc f6 8b eb 3c a7 27 11 3d 90 d3 1d bb
       -0.020149654 0.028753262 0.035438206 -0.00240824
0003c0 3c bb 0b bc 85 a9 20 3d 23 f0 c6 bc 40 40 69 3a
       -0.008528527 0.039224166 -0.024284428 0.00088978186
0003d0 a4 f4 17 bd c7 e9 14 bd e0 0f dd 3a 9d c4 24 3d
       -0.03709854 -0.03635576 0.0016865693 0.040226568
0003e0 3f e8 13 bd 00 da b7 3b 2c 38 26 bc 48 aa db bc
       -0.03611016 0.0056107044 -0.010145228 -0.026814595
0003f0 63 6f 20 3c d4 6a e5 3a b8 67 ad 3c 23 a6 e7 3c
       0.009792182 0.0017503151 0.021167621 0.028277462

bottleneck.2.bias f4 [64]
000000 a6 c2 13 bd 78 2b f7 bc e6 8c e0 bc cd 74 8a bc
       -0.036074303 -0.030172095 -0.027410936 -0.016901398
000010 b3 5b 0b bd 5d 86 38 3d a7 8d ac 3b 33 59 df bc
       -0.034022998 0.045050014 0.0052659097 -0.027264213
000020 73 32 24 bd e8 ad 8a 3b e0 da 4c 3b 6b ac 7a bb
       -0.040087175 0.004232157 0.003125839 -0.0038249742
000030 42 78 39 bb eb 6c 91 bc ed 80 07 3d d6 05 c1 3c
       -0.002830044 -0.017752131 0.033081938 0.023562353
000040 30 b6 bd bc 21 0d be bc 1f a9 60 3c fb 39 ca 3c
       -0.023158163 -0.02319962 0.013712197 0.02468585
000050 88 38 20 bd c5 95 2c bd 30 70 ad 3c 87 14 cb 3c
       -0.039116412 -0.04213502 0.02117166 0.024790062
000060 2b a7 39 bd 80 f6 a3 bb 8a 81 4b 3c 90 d7 44 3d
       -0.04532544 -0.0050037503 0.012421021 0.04805714
000070 36 d9 e8 bc 68 d3 9b bc 65 c7 2b 3a 05 67 da 3c
       -0.028423887 -0.019021705 0.00065528444 0.026660452
000080 4b 5b 38 3d 69 c1 af 3c f0 84 5c 3c ad 31 ab bc
       0.04500894 0.02145453 0.013459429 -0.02089771
000090 93 68 12 3d 4d 90 04 bd 03 f9 9c bb f9 e8 cc 3b
       0.03574426 -0.03236418 -0.0047904267 0.0062533584
0000a0 25 9a 16 3d 30 ff 29 3d 5e 00 11 3d cd cc 39 3d
       0.036768097 0.04150313 0.03540074 0.04536133
0000b0 c3 60 ab 3b dc 8a 00 3d 77 45 b4 bc 0c fc 59 bc
       0.0052300408 0.031382427 -0.02200578 -0.013304722
0000c0 15 04 10 3d aa 7c 43 bd 6d eb 8c bb 5b 85 fa bc
       0.035160143 -0.04772631 -0.004300526 -0.030581167
0000d0 0b 0f 1e bd 26 eb 3a bd 07 7b f1 bb 58 94 d6 3c
       -0.038588565 -0.04563441 -0.0073694023 0.026193783
0000e0 53 bf 0b bd 88 26 c7 bc a8 2b 13 bd 51 67 d5 bc
       -0.034118008 -0.024310365 -0.035930306 -0.026050242
0000f0 8b 8d bb bc c9 e8 11 bc 15 62 ce bc 72 e9 d2 3c
       -0.022894641 -0.008905598 -0.025193254 0.025746081
